{"format": "layers-model", "generatedBy": "keras v3.10.0", "convertedBy": "TensorFlow.js Converter v4.22.0", "modelTopology": {"keras_version": "3.10.0", "backend": "tensorflow", "model_config": {"class_name": "Sequential", "config": {"name": "sequential_3", "trainable": true, "dtype": {"module": "keras", "class_name": "DTypePolicy", "config": {"name": "float32"}, "registered_name": null}, "layers": [{"class_name": "InputLayer", "config": {"batch_shape": [null, 300, 300, 3], "dtype": "float32", "sparse": false, "ragged": false, "name": "input_layer_7"}}, {"class_name": "Functional", "config": {"name": "efficientnetb3", "trainable": false, "layers": [{"class_name": "InputLayer", "config": {"batch_shape": [null, 300, 300, 3], "dtype": "float32", "sparse": false, "ragged": false, "name": "input_layer_6"}, "name": "input_layer_6", "inbound_nodes": []}, {"class_name": "Rescaling", "config": {"name": "rescaling_6", "trainable": false, "dtype": {"module": "keras", "class_name": "DTypePolicy", "config": {"name": "float32"}, "registered_name": null}, "scale": 0.00392156862745098, "offset": 0.0}, "name": "rescaling_6", "inbound_nodes": [{"args": [{"class_name": "__keras_tensor__", "config": {"shape": [null, 300, 300, 3], "dtype": "float32", "keras_history": ["input_layer_6", 0, 0]}}], "kwargs": {}}]}, {"class_name": "Normalization", "config": {"name": "normalization_3", "trainable": false, "dtype": {"module": "keras", "class_name": "DTypePolicy", "config": {"name": "float32"}, "registered_name": null}, "axis": [3], "invert": false, "mean": null, "variance": null}, "name": "normalization_3", "inbound_nodes": [{"args": [{"class_name": "__keras_tensor__", "config": {"shape": [null, 300, 300, 3], "dtype": "float32", "keras_history": ["rescaling_6", 0, 0]}}], "kwargs": {}}]}, {"class_name": "Rescaling", "config": {"name": "rescaling_7", "trainable": false, "dtype": {"module": "keras", "class_name": "DTypePolicy", "config": {"name": "float32"}, "registered_name": null}, "scale": [2.0896918976428642, 2.1128856368212916, 2.1081851067789197], "offset": 0.0}, "name": "rescaling_7", "inbound_nodes": [{"args": [{"class_name": "__keras_tensor__", "config": {"shape": [null, 300, 300, 3], "dtype": "float32", "keras_history": ["normalization_3", 0, 0]}}], "kwargs": {}}]}, {"class_name": "ZeroPadding2D", "config": {"name": "stem_conv_pad", "trainable": false, "dtype": {"module": "keras", "class_name": "DTypePolicy", "config": {"name": "float32"}, "registered_name": null}, "padding": [[0, 1], [0, 1]], "data_format": "channels_last"}, "name": "stem_conv_pad", "inbound_nodes": [{"args": [{"class_name": "__keras_tensor__", "config": {"shape": [null, 300, 300, 3], "dtype": "float32", "keras_history": ["rescaling_7", 0, 0]}}], "kwargs": {}}]}, {"class_name": "Conv2D", "config": {"name": "stem_conv", "trainable": false, "dtype": {"module": "keras", "class_name": "DTypePolicy", "config": {"name": "float32"}, "registered_name": null}, "filters": 40, "kernel_size": [3, 3], "strides": [2, 2], "padding": "valid", "data_format": "channels_last", "dilation_rate": [1, 1], "groups": 1, "activation": "linear", "use_bias": false, "kernel_initializer": {"module": "keras.initializers", "class_name": "VarianceScaling", "config": {"seed": null, "scale": 2.0, "mode": "fan_out", "distribution": "truncated_normal"}, "registered_name": null}, "bias_initializer": {"module": "keras.initializers", "class_name": "Zeros", "config": {}, "registered_name": null}, "kernel_regularizer": null, "bias_regularizer": null, "activity_regularizer": null, "kernel_constraint": null, "bias_constraint": null}, "name": "stem_conv", "inbound_nodes": [{"args": [{"class_name": "__keras_tensor__", "config": {"shape": [null, 301, 301, 3], "dtype": "float32", "keras_history": ["stem_conv_pad", 0, 0]}}], "kwargs": {}}]}, {"class_name": "BatchNormalization", "config": {"name": "stem_bn", "trainable": false, "dtype": {"module": "keras", "class_name": "DTypePolicy", "config": {"name": "float32"}, "registered_name": null}, "axis": 3, "momentum": 0.99, "epsilon": 0.001, "center": true, "scale": true, "beta_initializer": {"module": "keras.initializers", "class_name": "Zeros", "config": {}, "registered_name": null}, "gamma_initializer": {"module": "keras.initializers", "class_name": "Ones", "config": {}, "registered_name": null}, "moving_mean_initializer": {"module": "keras.initializers", "class_name": "Zeros", "config": {}, "registered_name": null}, "moving_variance_initializer": {"module": "keras.initializers", "class_name": "Ones", "config": {}, "registered_name": null}, "beta_regularizer": null, "gamma_regularizer": null, "beta_constraint": null, "gamma_constraint": null, "synchronized": false}, "name": "stem_bn", "inbound_nodes": [{"args": [{"class_name": "__keras_tensor__", "config": {"shape": [null, 150, 150, 40], "dtype": "float32", "keras_history": ["stem_conv", 0, 0]}}], "kwargs": {"mask": null}}]}, {"class_name": "Activation", "config": {"name": "stem_activation", "trainable": false, "dtype": {"module": "keras", "class_name": "DTypePolicy", "config": {"name": "float32"}, "registered_name": null}, "activation": "silu"}, "name": "stem_activation", "inbound_nodes": [{"args": [{"class_name": "__keras_tensor__", "config": {"shape": [null, 150, 150, 40], "dtype": "float32", "keras_history": ["stem_bn", 0, 0]}}], "kwargs": {}}]}, {"class_name": "DepthwiseConv2D", "config": {"name": "block1a_dwconv", "trainable": false, "dtype": {"module": "keras", "class_name": "DTypePolicy", "config": {"name": "float32"}, "registered_name": null}, "depth_multiplier": 1, "kernel_size": [3, 3], "strides": [1, 1], "padding": "same", "data_format": "channels_last", "dilation_rate": [1, 1], "activation": "linear", "use_bias": false, "depthwise_initializer": {"module": "keras.initializers", "class_name": "VarianceScaling", "config": {"seed": null, "scale": 2.0, "mode": "fan_out", "distribution": "truncated_normal"}, "registered_name": null}, "bias_initializer": {"module": "keras.initializers", "class_name": "Zeros", "config": {}, "registered_name": null}, "depthwise_regularizer": null, "bias_regularizer": null, "activity_regularizer": null, "depthwise_constraint": null, "bias_constraint": null}, "name": "block1a_dwconv", "inbound_nodes": [{"args": [{"class_name": "__keras_tensor__", "config": {"shape": [null, 150, 150, 40], "dtype": "float32", "keras_history": ["stem_activation", 0, 0]}}], "kwargs": {}}]}, {"class_name": "BatchNormalization", "config": {"name": "block1a_bn", "trainable": false, "dtype": {"module": "keras", "class_name": "DTypePolicy", "config": {"name": "float32"}, "registered_name": null}, "axis": 3, "momentum": 0.99, "epsilon": 0.001, "center": true, "scale": true, "beta_initializer": {"module": "keras.initializers", "class_name": "Zeros", "config": {}, "registered_name": null}, "gamma_initializer": {"module": "keras.initializers", "class_name": "Ones", "config": {}, "registered_name": null}, "moving_mean_initializer": {"module": "keras.initializers", "class_name": "Zeros", "config": {}, "registered_name": null}, "moving_variance_initializer": {"module": "keras.initializers", "class_name": "Ones", "config": {}, "registered_name": null}, "beta_regularizer": null, "gamma_regularizer": null, "beta_constraint": null, "gamma_constraint": null, "synchronized": false}, "name": "block1a_bn", "inbound_nodes": [{"args": [{"class_name": "__keras_tensor__", "config": {"shape": [null, 150, 150, 40], "dtype": "float32", "keras_history": ["block1a_dwconv", 0, 0]}}], "kwargs": {"mask": null}}]}, {"class_name": "Activation", "config": {"name": "block1a_activation", "trainable": false, "dtype": {"module": "keras", "class_name": "DTypePolicy", "config": {"name": "float32"}, "registered_name": null}, "activation": "silu"}, "name": "block1a_activation", "inbound_nodes": [{"args": [{"class_name": "__keras_tensor__", "config": {"shape": [null, 150, 150, 40], "dtype": "float32", "keras_history": ["block1a_bn", 0, 0]}}], "kwargs": {}}]}, {"class_name": "GlobalAveragePooling2D", "config": {"name": "block1a_se_squeeze", "trainable": false, "dtype": {"module": "keras", "class_name": "DTypePolicy", "config": {"name": "float32"}, "registered_name": null}, "data_format": "channels_last", "keepdims": false}, "name": "block1a_se_squeeze", "inbound_nodes": [{"args": [{"class_name": "__keras_tensor__", "config": {"shape": [null, 150, 150, 40], "dtype": "float32", "keras_history": ["block1a_activation", 0, 0]}}], "kwargs": {}}]}, {"class_name": "Reshape", "config": {"name": "block1a_se_reshape", "trainable": false, "dtype": {"module": "keras", "class_name": "DTypePolicy", "config": {"name": "float32"}, "registered_name": null}, "target_shape": [1, 1, 40]}, "name": "block1a_se_reshape", "inbound_nodes": [{"args": [{"class_name": "__keras_tensor__", "config": {"shape": [null, 40], "dtype": "float32", "keras_history": ["block1a_se_squeeze", 0, 0]}}], "kwargs": {}}]}, {"class_name": "Conv2D", "config": {"name": "block1a_se_reduce", "trainable": false, "dtype": {"module": "keras", "class_name": "DTypePolicy", "config": {"name": "float32"}, "registered_name": null}, "filters": 10, "kernel_size": [1, 1], "strides": [1, 1], "padding": "same", "data_format": "channels_last", "dilation_rate": [1, 1], "groups": 1, "activation": "silu", "use_bias": true, "kernel_initializer": {"module": "keras.initializers", "class_name": "VarianceScaling", "config": {"seed": null, "scale": 2.0, "mode": "fan_out", "distribution": "truncated_normal"}, "registered_name": null}, "bias_initializer": {"module": "keras.initializers", "class_name": "Zeros", "config": {}, "registered_name": null}, "kernel_regularizer": null, "bias_regularizer": null, "activity_regularizer": null, "kernel_constraint": null, "bias_constraint": null}, "name": "block1a_se_reduce", "inbound_nodes": [{"args": [{"class_name": "__keras_tensor__", "config": {"shape": [null, 1, 1, 40], "dtype": "float32", "keras_history": ["block1a_se_reshape", 0, 0]}}], "kwargs": {}}]}, {"class_name": "Conv2D", "config": {"name": "block1a_se_expand", "trainable": false, "dtype": {"module": "keras", "class_name": "DTypePolicy", "config": {"name": "float32"}, "registered_name": null}, "filters": 40, "kernel_size": [1, 1], "strides": [1, 1], "padding": "same", "data_format": "channels_last", "dilation_rate": [1, 1], "groups": 1, "activation": "sigmoid", "use_bias": true, "kernel_initializer": {"module": "keras.initializers", "class_name": "VarianceScaling", "config": {"seed": null, "scale": 2.0, "mode": "fan_out", "distribution": "truncated_normal"}, "registered_name": null}, "bias_initializer": {"module": "keras.initializers", "class_name": "Zeros", "config": {}, "registered_name": null}, "kernel_regularizer": null, "bias_regularizer": null, "activity_regularizer": null, "kernel_constraint": null, "bias_constraint": null}, "name": "block1a_se_expand", "inbound_nodes": [{"args": [{"class_name": "__keras_tensor__", "config": {"shape": [null, 1, 1, 10], "dtype": "float32", "keras_history": ["block1a_se_reduce", 0, 0]}}], "kwargs": {}}]}, {"class_name": "Multiply", "config": {"name": "block1a_se_excite", "trainable": false, "dtype": {"module": "keras", "class_name": "DTypePolicy", "config": {"name": "float32"}, "registered_name": null}}, "name": "block1a_se_excite", "inbound_nodes": [{"args": [[{"class_name": "__keras_tensor__", "config": {"shape": [null, 150, 150, 40], "dtype": "float32", "keras_history": ["block1a_activation", 0, 0]}}, {"class_name": "__keras_tensor__", "config": {"shape": [null, 1, 1, 40], "dtype": "float32", "keras_history": ["block1a_se_expand", 0, 0]}}]], "kwargs": {}}]}, {"class_name": "Conv2D", "config": {"name": "block1a_project_conv", "trainable": false, "dtype": {"module": "keras", "class_name": "DTypePolicy", "config": {"name": "float32"}, "registered_name": null}, "filters": 24, "kernel_size": [1, 1], "strides": [1, 1], "padding": "same", "data_format": "channels_last", "dilation_rate": [1, 1], "groups": 1, "activation": "linear", "use_bias": false, "kernel_initializer": {"module": "keras.initializers", "class_name": "VarianceScaling", "config": {"seed": null, "scale": 2.0, "mode": "fan_out", "distribution": "truncated_normal"}, "registered_name": null}, "bias_initializer": {"module": "keras.initializers", "class_name": "Zeros", "config": {}, "registered_name": null}, "kernel_regularizer": null, "bias_regularizer": null, "activity_regularizer": null, "kernel_constraint": null, "bias_constraint": null}, "name": "block1a_project_conv", "inbound_nodes": [{"args": [{"class_name": "__keras_tensor__", "config": {"shape": [null, 150, 150, 40], "dtype": "float32", "keras_history": ["block1a_se_excite", 0, 0]}}], "kwargs": {}}]}, {"class_name": "BatchNormalization", "config": {"name": "block1a_project_bn", "trainable": false, "dtype": {"module": "keras", "class_name": "DTypePolicy", "config": {"name": "float32"}, "registered_name": null}, "axis": 3, "momentum": 0.99, "epsilon": 0.001, "center": true, "scale": true, "beta_initializer": {"module": "keras.initializers", "class_name": "Zeros", "config": {}, "registered_name": null}, "gamma_initializer": {"module": "keras.initializers", "class_name": "Ones", "config": {}, "registered_name": null}, "moving_mean_initializer": {"module": "keras.initializers", "class_name": "Zeros", "config": {}, "registered_name": null}, "moving_variance_initializer": {"module": "keras.initializers", "class_name": "Ones", "config": {}, "registered_name": null}, "beta_regularizer": null, "gamma_regularizer": null, "beta_constraint": null, "gamma_constraint": null, "synchronized": false}, "name": "block1a_project_bn", "inbound_nodes": [{"args": [{"class_name": "__keras_tensor__", "config": {"shape": [null, 150, 150, 24], "dtype": "float32", "keras_history": ["block1a_project_conv", 0, 0]}}], "kwargs": {"mask": null}}]}, {"class_name": "DepthwiseConv2D", "config": {"name": "block1b_dwconv", "trainable": false, "dtype": {"module": "keras", "class_name": "DTypePolicy", "config": {"name": "float32"}, "registered_name": null}, "depth_multiplier": 1, "kernel_size": [3, 3], "strides": [1, 1], "padding": "same", "data_format": "channels_last", "dilation_rate": [1, 1], "activation": "linear", "use_bias": false, "depthwise_initializer": {"module": "keras.initializers", "class_name": "VarianceScaling", "config": {"seed": null, "scale": 2.0, "mode": "fan_out", "distribution": "truncated_normal"}, "registered_name": null}, "bias_initializer": {"module": "keras.initializers", "class_name": "Zeros", "config": {}, "registered_name": null}, "depthwise_regularizer": null, "bias_regularizer": null, "activity_regularizer": null, "depthwise_constraint": null, "bias_constraint": null}, "name": "block1b_dwconv", "inbound_nodes": [{"args": [{"class_name": "__keras_tensor__", "config": {"shape": [null, 150, 150, 24], "dtype": "float32", "keras_history": ["block1a_project_bn", 0, 0]}}], "kwargs": {}}]}, {"class_name": "BatchNormalization", "config": {"name": "block1b_bn", "trainable": false, "dtype": {"module": "keras", "class_name": "DTypePolicy", "config": {"name": "float32"}, "registered_name": null}, "axis": 3, "momentum": 0.99, "epsilon": 0.001, "center": true, "scale": true, "beta_initializer": {"module": "keras.initializers", "class_name": "Zeros", "config": {}, "registered_name": null}, "gamma_initializer": {"module": "keras.initializers", "class_name": "Ones", "config": {}, "registered_name": null}, "moving_mean_initializer": {"module": "keras.initializers", "class_name": "Zeros", "config": {}, "registered_name": null}, "moving_variance_initializer": {"module": "keras.initializers", "class_name": "Ones", "config": {}, "registered_name": null}, "beta_regularizer": null, "gamma_regularizer": null, "beta_constraint": null, "gamma_constraint": null, "synchronized": false}, "name": "block1b_bn", "inbound_nodes": [{"args": [{"class_name": "__keras_tensor__", "config": {"shape": [null, 150, 150, 24], "dtype": "float32", "keras_history": ["block1b_dwconv", 0, 0]}}], "kwargs": {"mask": null}}]}, {"class_name": "Activation", "config": {"name": "block1b_activation", "trainable": false, "dtype": {"module": "keras", "class_name": "DTypePolicy", "config": {"name": "float32"}, "registered_name": null}, "activation": "silu"}, "name": "block1b_activation", "inbound_nodes": [{"args": [{"class_name": "__keras_tensor__", "config": {"shape": [null, 150, 150, 24], "dtype": "float32", "keras_history": ["block1b_bn", 0, 0]}}], "kwargs": {}}]}, {"class_name": "GlobalAveragePooling2D", "config": {"name": "block1b_se_squeeze", "trainable": false, "dtype": {"module": "keras", "class_name": "DTypePolicy", "config": {"name": "float32"}, "registered_name": null}, "data_format": "channels_last", "keepdims": false}, "name": "block1b_se_squeeze", "inbound_nodes": [{"args": [{"class_name": "__keras_tensor__", "config": {"shape": [null, 150, 150, 24], "dtype": "float32", "keras_history": ["block1b_activation", 0, 0]}}], "kwargs": {}}]}, {"class_name": "Reshape", "config": {"name": "block1b_se_reshape", "trainable": false, "dtype": {"module": "keras", "class_name": "DTypePolicy", "config": {"name": "float32"}, "registered_name": null}, "target_shape": [1, 1, 24]}, "name": "block1b_se_reshape", "inbound_nodes": [{"args": [{"class_name": "__keras_tensor__", "config": {"shape": [null, 24], "dtype": "float32", "keras_history": ["block1b_se_squeeze", 0, 0]}}], "kwargs": {}}]}, {"class_name": "Conv2D", "config": {"name": "block1b_se_reduce", "trainable": false, "dtype": {"module": "keras", "class_name": "DTypePolicy", "config": {"name": "float32"}, "registered_name": null}, "filters": 6, "kernel_size": [1, 1], "strides": [1, 1], "padding": "same", "data_format": "channels_last", "dilation_rate": [1, 1], "groups": 1, "activation": "silu", "use_bias": true, "kernel_initializer": {"module": "keras.initializers", "class_name": "VarianceScaling", "config": {"seed": null, "scale": 2.0, "mode": "fan_out", "distribution": "truncated_normal"}, "registered_name": null}, "bias_initializer": {"module": "keras.initializers", "class_name": "Zeros", "config": {}, "registered_name": null}, "kernel_regularizer": null, "bias_regularizer": null, "activity_regularizer": null, "kernel_constraint": null, "bias_constraint": null}, "name": "block1b_se_reduce", "inbound_nodes": [{"args": [{"class_name": "__keras_tensor__", "config": {"shape": [null, 1, 1, 24], "dtype": "float32", "keras_history": ["block1b_se_reshape", 0, 0]}}], "kwargs": {}}]}, {"class_name": "Conv2D", "config": {"name": "block1b_se_expand", "trainable": false, "dtype": {"module": "keras", "class_name": "DTypePolicy", "config": {"name": "float32"}, "registered_name": null}, "filters": 24, "kernel_size": [1, 1], "strides": [1, 1], "padding": "same", "data_format": "channels_last", "dilation_rate": [1, 1], "groups": 1, "activation": "sigmoid", "use_bias": true, "kernel_initializer": {"module": "keras.initializers", "class_name": "VarianceScaling", "config": {"seed": null, "scale": 2.0, "mode": "fan_out", "distribution": "truncated_normal"}, "registered_name": null}, "bias_initializer": {"module": "keras.initializers", "class_name": "Zeros", "config": {}, "registered_name": null}, "kernel_regularizer": null, "bias_regularizer": null, "activity_regularizer": null, "kernel_constraint": null, "bias_constraint": null}, "name": "block1b_se_expand", "inbound_nodes": [{"args": [{"class_name": "__keras_tensor__", "config": {"shape": [null, 1, 1, 6], "dtype": "float32", "keras_history": ["block1b_se_reduce", 0, 0]}}], "kwargs": {}}]}, {"class_name": "Multiply", "config": {"name": "block1b_se_excite", "trainable": false, "dtype": {"module": "keras", "class_name": "DTypePolicy", "config": {"name": "float32"}, "registered_name": null}}, "name": "block1b_se_excite", "inbound_nodes": [{"args": [[{"class_name": "__keras_tensor__", "config": {"shape": [null, 150, 150, 24], "dtype": "float32", "keras_history": ["block1b_activation", 0, 0]}}, {"class_name": "__keras_tensor__", "config": {"shape": [null, 1, 1, 24], "dtype": "float32", "keras_history": ["block1b_se_expand", 0, 0]}}]], "kwargs": {}}]}, {"class_name": "Conv2D", "config": {"name": "block1b_project_conv", "trainable": false, "dtype": {"module": "keras", "class_name": "DTypePolicy", "config": {"name": "float32"}, "registered_name": null}, "filters": 24, "kernel_size": [1, 1], "strides": [1, 1], "padding": "same", "data_format": "channels_last", "dilation_rate": [1, 1], "groups": 1, "activation": "linear", "use_bias": false, "kernel_initializer": {"module": "keras.initializers", "class_name": "VarianceScaling", "config": {"seed": null, "scale": 2.0, "mode": "fan_out", "distribution": "truncated_normal"}, "registered_name": null}, "bias_initializer": {"module": "keras.initializers", "class_name": "Zeros", "config": {}, "registered_name": null}, "kernel_regularizer": null, "bias_regularizer": null, "activity_regularizer": null, "kernel_constraint": null, "bias_constraint": null}, "name": "block1b_project_conv", "inbound_nodes": [{"args": [{"class_name": "__keras_tensor__", "config": {"shape": [null, 150, 150, 24], "dtype": "float32", "keras_history": ["block1b_se_excite", 0, 0]}}], "kwargs": {}}]}, {"class_name": "BatchNormalization", "config": {"name": "block1b_project_bn", "trainable": false, "dtype": {"module": "keras", "class_name": "DTypePolicy", "config": {"name": "float32"}, "registered_name": null}, "axis": 3, "momentum": 0.99, "epsilon": 0.001, "center": true, "scale": true, "beta_initializer": {"module": "keras.initializers", "class_name": "Zeros", "config": {}, "registered_name": null}, "gamma_initializer": {"module": "keras.initializers", "class_name": "Ones", "config": {}, "registered_name": null}, "moving_mean_initializer": {"module": "keras.initializers", "class_name": "Zeros", "config": {}, "registered_name": null}, "moving_variance_initializer": {"module": "keras.initializers", "class_name": "Ones", "config": {}, "registered_name": null}, "beta_regularizer": null, "gamma_regularizer": null, "beta_constraint": null, "gamma_constraint": null, "synchronized": false}, "name": "block1b_project_bn", "inbound_nodes": [{"args": [{"class_name": "__keras_tensor__", "config": {"shape": [null, 150, 150, 24], "dtype": "float32", "keras_history": ["block1b_project_conv", 0, 0]}}], "kwargs": {"mask": null}}]}, {"class_name": "Dropout", "config": {"name": "block1b_drop", "trainable": false, "dtype": {"module": "keras", "class_name": "DTypePolicy", "config": {"name": "float32"}, "registered_name": null}, "rate": 0.007692307692307693, "seed": null, "noise_shape": [null, 1, 1, 1]}, "name": "block1b_drop", "inbound_nodes": [{"args": [{"class_name": "__keras_tensor__", "config": {"shape": [null, 150, 150, 24], "dtype": "float32", "keras_history": ["block1b_project_bn", 0, 0]}}], "kwargs": {"training": false}}]}, {"class_name": "Add", "config": {"name": "block1b_add", "trainable": false, "dtype": {"module": "keras", "class_name": "DTypePolicy", "config": {"name": "float32"}, "registered_name": null}}, "name": "block1b_add", "inbound_nodes": [{"args": [[{"class_name": "__keras_tensor__", "config": {"shape": [null, 150, 150, 24], "dtype": "float32", "keras_history": ["block1b_drop", 0, 0]}}, {"class_name": "__keras_tensor__", "config": {"shape": [null, 150, 150, 24], "dtype": "float32", "keras_history": ["block1a_project_bn", 0, 0]}}]], "kwargs": {}}]}, {"class_name": "Conv2D", "config": {"name": "block2a_expand_conv", "trainable": false, "dtype": {"module": "keras", "class_name": "DTypePolicy", "config": {"name": "float32"}, "registered_name": null}, "filters": 144, "kernel_size": [1, 1], "strides": [1, 1], "padding": "same", "data_format": "channels_last", "dilation_rate": [1, 1], "groups": 1, "activation": "linear", "use_bias": false, "kernel_initializer": {"module": "keras.initializers", "class_name": "VarianceScaling", "config": {"seed": null, "scale": 2.0, "mode": "fan_out", "distribution": "truncated_normal"}, "registered_name": null}, "bias_initializer": {"module": "keras.initializers", "class_name": "Zeros", "config": {}, "registered_name": null}, "kernel_regularizer": null, "bias_regularizer": null, "activity_regularizer": null, "kernel_constraint": null, "bias_constraint": null}, "name": "block2a_expand_conv", "inbound_nodes": [{"args": [{"class_name": "__keras_tensor__", "config": {"shape": [null, 150, 150, 24], "dtype": "float32", "keras_history": ["block1b_add", 0, 0]}}], "kwargs": {}}]}, {"class_name": "BatchNormalization", "config": {"name": "block2a_expand_bn", "trainable": false, "dtype": {"module": "keras", "class_name": "DTypePolicy", "config": {"name": "float32"}, "registered_name": null}, "axis": 3, "momentum": 0.99, "epsilon": 0.001, "center": true, "scale": true, "beta_initializer": {"module": "keras.initializers", "class_name": "Zeros", "config": {}, "registered_name": null}, "gamma_initializer": {"module": "keras.initializers", "class_name": "Ones", "config": {}, "registered_name": null}, "moving_mean_initializer": {"module": "keras.initializers", "class_name": "Zeros", "config": {}, "registered_name": null}, "moving_variance_initializer": {"module": "keras.initializers", "class_name": "Ones", "config": {}, "registered_name": null}, "beta_regularizer": null, "gamma_regularizer": null, "beta_constraint": null, "gamma_constraint": null, "synchronized": false}, "name": "block2a_expand_bn", "inbound_nodes": [{"args": [{"class_name": "__keras_tensor__", "config": {"shape": [null, 150, 150, 144], "dtype": "float32", "keras_history": ["block2a_expand_conv", 0, 0]}}], "kwargs": {"mask": null}}]}, {"class_name": "Activation", "config": {"name": "block2a_expand_activation", "trainable": false, "dtype": {"module": "keras", "class_name": "DTypePolicy", "config": {"name": "float32"}, "registered_name": null}, "activation": "silu"}, "name": "block2a_expand_activation", "inbound_nodes": [{"args": [{"class_name": "__keras_tensor__", "config": {"shape": [null, 150, 150, 144], "dtype": "float32", "keras_history": ["block2a_expand_bn", 0, 0]}}], "kwargs": {}}]}, {"class_name": "ZeroPadding2D", "config": {"name": "block2a_dwconv_pad", "trainable": false, "dtype": {"module": "keras", "class_name": "DTypePolicy", "config": {"name": "float32"}, "registered_name": null}, "padding": [[0, 1], [0, 1]], "data_format": "channels_last"}, "name": "block2a_dwconv_pad", "inbound_nodes": [{"args": [{"class_name": "__keras_tensor__", "config": {"shape": [null, 150, 150, 144], "dtype": "float32", "keras_history": ["block2a_expand_activation", 0, 0]}}], "kwargs": {}}]}, {"class_name": "DepthwiseConv2D", "config": {"name": "block2a_dwconv", "trainable": false, "dtype": {"module": "keras", "class_name": "DTypePolicy", "config": {"name": "float32"}, "registered_name": null}, "depth_multiplier": 1, "kernel_size": [3, 3], "strides": [2, 2], "padding": "valid", "data_format": "channels_last", "dilation_rate": [1, 1], "activation": "linear", "use_bias": false, "depthwise_initializer": {"module": "keras.initializers", "class_name": "VarianceScaling", "config": {"seed": null, "scale": 2.0, "mode": "fan_out", "distribution": "truncated_normal"}, "registered_name": null}, "bias_initializer": {"module": "keras.initializers", "class_name": "Zeros", "config": {}, "registered_name": null}, "depthwise_regularizer": null, "bias_regularizer": null, "activity_regularizer": null, "depthwise_constraint": null, "bias_constraint": null}, "name": "block2a_dwconv", "inbound_nodes": [{"args": [{"class_name": "__keras_tensor__", "config": {"shape": [null, 151, 151, 144], "dtype": "float32", "keras_history": ["block2a_dwconv_pad", 0, 0]}}], "kwargs": {}}]}, {"class_name": "BatchNormalization", "config": {"name": "block2a_bn", "trainable": false, "dtype": {"module": "keras", "class_name": "DTypePolicy", "config": {"name": "float32"}, "registered_name": null}, "axis": 3, "momentum": 0.99, "epsilon": 0.001, "center": true, "scale": true, "beta_initializer": {"module": "keras.initializers", "class_name": "Zeros", "config": {}, "registered_name": null}, "gamma_initializer": {"module": "keras.initializers", "class_name": "Ones", "config": {}, "registered_name": null}, "moving_mean_initializer": {"module": "keras.initializers", "class_name": "Zeros", "config": {}, "registered_name": null}, "moving_variance_initializer": {"module": "keras.initializers", "class_name": "Ones", "config": {}, "registered_name": null}, "beta_regularizer": null, "gamma_regularizer": null, "beta_constraint": null, "gamma_constraint": null, "synchronized": false}, "name": "block2a_bn", "inbound_nodes": [{"args": [{"class_name": "__keras_tensor__", "config": {"shape": [null, 75, 75, 144], "dtype": "float32", "keras_history": ["block2a_dwconv", 0, 0]}}], "kwargs": {"mask": null}}]}, {"class_name": "Activation", "config": {"name": "block2a_activation", "trainable": false, "dtype": {"module": "keras", "class_name": "DTypePolicy", "config": {"name": "float32"}, "registered_name": null}, "activation": "silu"}, "name": "block2a_activation", "inbound_nodes": [{"args": [{"class_name": "__keras_tensor__", "config": {"shape": [null, 75, 75, 144], "dtype": "float32", "keras_history": ["block2a_bn", 0, 0]}}], "kwargs": {}}]}, {"class_name": "GlobalAveragePooling2D", "config": {"name": "block2a_se_squeeze", "trainable": false, "dtype": {"module": "keras", "class_name": "DTypePolicy", "config": {"name": "float32"}, "registered_name": null}, "data_format": "channels_last", "keepdims": false}, "name": "block2a_se_squeeze", "inbound_nodes": [{"args": [{"class_name": "__keras_tensor__", "config": {"shape": [null, 75, 75, 144], "dtype": "float32", "keras_history": ["block2a_activation", 0, 0]}}], "kwargs": {}}]}, {"class_name": "Reshape", "config": {"name": "block2a_se_reshape", "trainable": false, "dtype": {"module": "keras", "class_name": "DTypePolicy", "config": {"name": "float32"}, "registered_name": null}, "target_shape": [1, 1, 144]}, "name": "block2a_se_reshape", "inbound_nodes": [{"args": [{"class_name": "__keras_tensor__", "config": {"shape": [null, 144], "dtype": "float32", "keras_history": ["block2a_se_squeeze", 0, 0]}}], "kwargs": {}}]}, {"class_name": "Conv2D", "config": {"name": "block2a_se_reduce", "trainable": false, "dtype": {"module": "keras", "class_name": "DTypePolicy", "config": {"name": "float32"}, "registered_name": null}, "filters": 6, "kernel_size": [1, 1], "strides": [1, 1], "padding": "same", "data_format": "channels_last", "dilation_rate": [1, 1], "groups": 1, "activation": "silu", "use_bias": true, "kernel_initializer": {"module": "keras.initializers", "class_name": "VarianceScaling", "config": {"seed": null, "scale": 2.0, "mode": "fan_out", "distribution": "truncated_normal"}, "registered_name": null}, "bias_initializer": {"module": "keras.initializers", "class_name": "Zeros", "config": {}, "registered_name": null}, "kernel_regularizer": null, "bias_regularizer": null, "activity_regularizer": null, "kernel_constraint": null, "bias_constraint": null}, "name": "block2a_se_reduce", "inbound_nodes": [{"args": [{"class_name": "__keras_tensor__", "config": {"shape": [null, 1, 1, 144], "dtype": "float32", "keras_history": ["block2a_se_reshape", 0, 0]}}], "kwargs": {}}]}, {"class_name": "Conv2D", "config": {"name": "block2a_se_expand", "trainable": false, "dtype": {"module": "keras", "class_name": "DTypePolicy", "config": {"name": "float32"}, "registered_name": null}, "filters": 144, "kernel_size": [1, 1], "strides": [1, 1], "padding": "same", "data_format": "channels_last", "dilation_rate": [1, 1], "groups": 1, "activation": "sigmoid", "use_bias": true, "kernel_initializer": {"module": "keras.initializers", "class_name": "VarianceScaling", "config": {"seed": null, "scale": 2.0, "mode": "fan_out", "distribution": "truncated_normal"}, "registered_name": null}, "bias_initializer": {"module": "keras.initializers", "class_name": "Zeros", "config": {}, "registered_name": null}, "kernel_regularizer": null, "bias_regularizer": null, "activity_regularizer": null, "kernel_constraint": null, "bias_constraint": null}, "name": "block2a_se_expand", "inbound_nodes": [{"args": [{"class_name": "__keras_tensor__", "config": {"shape": [null, 1, 1, 6], "dtype": "float32", "keras_history": ["block2a_se_reduce", 0, 0]}}], "kwargs": {}}]}, {"class_name": "Multiply", "config": {"name": "block2a_se_excite", "trainable": false, "dtype": {"module": "keras", "class_name": "DTypePolicy", "config": {"name": "float32"}, "registered_name": null}}, "name": "block2a_se_excite", "inbound_nodes": [{"args": [[{"class_name": "__keras_tensor__", "config": {"shape": [null, 75, 75, 144], "dtype": "float32", "keras_history": ["block2a_activation", 0, 0]}}, {"class_name": "__keras_tensor__", "config": {"shape": [null, 1, 1, 144], "dtype": "float32", "keras_history": ["block2a_se_expand", 0, 0]}}]], "kwargs": {}}]}, {"class_name": "Conv2D", "config": {"name": "block2a_project_conv", "trainable": false, "dtype": {"module": "keras", "class_name": "DTypePolicy", "config": {"name": "float32"}, "registered_name": null}, "filters": 32, "kernel_size": [1, 1], "strides": [1, 1], "padding": "same", "data_format": "channels_last", "dilation_rate": [1, 1], "groups": 1, "activation": "linear", "use_bias": false, "kernel_initializer": {"module": "keras.initializers", "class_name": "VarianceScaling", "config": {"seed": null, "scale": 2.0, "mode": "fan_out", "distribution": "truncated_normal"}, "registered_name": null}, "bias_initializer": {"module": "keras.initializers", "class_name": "Zeros", "config": {}, "registered_name": null}, "kernel_regularizer": null, "bias_regularizer": null, "activity_regularizer": null, "kernel_constraint": null, "bias_constraint": null}, "name": "block2a_project_conv", "inbound_nodes": [{"args": [{"class_name": "__keras_tensor__", "config": {"shape": [null, 75, 75, 144], "dtype": "float32", "keras_history": ["block2a_se_excite", 0, 0]}}], "kwargs": {}}]}, {"class_name": "BatchNormalization", "config": {"name": "block2a_project_bn", "trainable": false, "dtype": {"module": "keras", "class_name": "DTypePolicy", "config": {"name": "float32"}, "registered_name": null}, "axis": 3, "momentum": 0.99, "epsilon": 0.001, "center": true, "scale": true, "beta_initializer": {"module": "keras.initializers", "class_name": "Zeros", "config": {}, "registered_name": null}, "gamma_initializer": {"module": "keras.initializers", "class_name": "Ones", "config": {}, "registered_name": null}, "moving_mean_initializer": {"module": "keras.initializers", "class_name": "Zeros", "config": {}, "registered_name": null}, "moving_variance_initializer": {"module": "keras.initializers", "class_name": "Ones", "config": {}, "registered_name": null}, "beta_regularizer": null, "gamma_regularizer": null, "beta_constraint": null, "gamma_constraint": null, "synchronized": false}, "name": "block2a_project_bn", "inbound_nodes": [{"args": [{"class_name": "__keras_tensor__", "config": {"shape": [null, 75, 75, 32], "dtype": "float32", "keras_history": ["block2a_project_conv", 0, 0]}}], "kwargs": {"mask": null}}]}, {"class_name": "Conv2D", "config": {"name": "block2b_expand_conv", "trainable": false, "dtype": {"module": "keras", "class_name": "DTypePolicy", "config": {"name": "float32"}, "registered_name": null}, "filters": 192, "kernel_size": [1, 1], "strides": [1, 1], "padding": "same", "data_format": "channels_last", "dilation_rate": [1, 1], "groups": 1, "activation": "linear", "use_bias": false, "kernel_initializer": {"module": "keras.initializers", "class_name": "VarianceScaling", "config": {"seed": null, "scale": 2.0, "mode": "fan_out", "distribution": "truncated_normal"}, "registered_name": null}, "bias_initializer": {"module": "keras.initializers", "class_name": "Zeros", "config": {}, "registered_name": null}, "kernel_regularizer": null, "bias_regularizer": null, "activity_regularizer": null, "kernel_constraint": null, "bias_constraint": null}, "name": "block2b_expand_conv", "inbound_nodes": [{"args": [{"class_name": "__keras_tensor__", "config": {"shape": [null, 75, 75, 32], "dtype": "float32", "keras_history": ["block2a_project_bn", 0, 0]}}], "kwargs": {}}]}, {"class_name": "BatchNormalization", "config": {"name": "block2b_expand_bn", "trainable": false, "dtype": {"module": "keras", "class_name": "DTypePolicy", "config": {"name": "float32"}, "registered_name": null}, "axis": 3, "momentum": 0.99, "epsilon": 0.001, "center": true, "scale": true, "beta_initializer": {"module": "keras.initializers", "class_name": "Zeros", "config": {}, "registered_name": null}, "gamma_initializer": {"module": "keras.initializers", "class_name": "Ones", "config": {}, "registered_name": null}, "moving_mean_initializer": {"module": "keras.initializers", "class_name": "Zeros", "config": {}, "registered_name": null}, "moving_variance_initializer": {"module": "keras.initializers", "class_name": "Ones", "config": {}, "registered_name": null}, "beta_regularizer": null, "gamma_regularizer": null, "beta_constraint": null, "gamma_constraint": null, "synchronized": false}, "name": "block2b_expand_bn", "inbound_nodes": [{"args": [{"class_name": "__keras_tensor__", "config": {"shape": [null, 75, 75, 192], "dtype": "float32", "keras_history": ["block2b_expand_conv", 0, 0]}}], "kwargs": {"mask": null}}]}, {"class_name": "Activation", "config": {"name": "block2b_expand_activation", "trainable": false, "dtype": {"module": "keras", "class_name": "DTypePolicy", "config": {"name": "float32"}, "registered_name": null}, "activation": "silu"}, "name": "block2b_expand_activation", "inbound_nodes": [{"args": [{"class_name": "__keras_tensor__", "config": {"shape": [null, 75, 75, 192], "dtype": "float32", "keras_history": ["block2b_expand_bn", 0, 0]}}], "kwargs": {}}]}, {"class_name": "DepthwiseConv2D", "config": {"name": "block2b_dwconv", "trainable": false, "dtype": {"module": "keras", "class_name": "DTypePolicy", "config": {"name": "float32"}, "registered_name": null}, "depth_multiplier": 1, "kernel_size": [3, 3], "strides": [1, 1], "padding": "same", "data_format": "channels_last", "dilation_rate": [1, 1], "activation": "linear", "use_bias": false, "depthwise_initializer": {"module": "keras.initializers", "class_name": "VarianceScaling", "config": {"seed": null, "scale": 2.0, "mode": "fan_out", "distribution": "truncated_normal"}, "registered_name": null}, "bias_initializer": {"module": "keras.initializers", "class_name": "Zeros", "config": {}, "registered_name": null}, "depthwise_regularizer": null, "bias_regularizer": null, "activity_regularizer": null, "depthwise_constraint": null, "bias_constraint": null}, "name": "block2b_dwconv", "inbound_nodes": [{"args": [{"class_name": "__keras_tensor__", "config": {"shape": [null, 75, 75, 192], "dtype": "float32", "keras_history": ["block2b_expand_activation", 0, 0]}}], "kwargs": {}}]}, {"class_name": "BatchNormalization", "config": {"name": "block2b_bn", "trainable": false, "dtype": {"module": "keras", "class_name": "DTypePolicy", "config": {"name": "float32"}, "registered_name": null}, "axis": 3, "momentum": 0.99, "epsilon": 0.001, "center": true, "scale": true, "beta_initializer": {"module": "keras.initializers", "class_name": "Zeros", "config": {}, "registered_name": null}, "gamma_initializer": {"module": "keras.initializers", "class_name": "Ones", "config": {}, "registered_name": null}, "moving_mean_initializer": {"module": "keras.initializers", "class_name": "Zeros", "config": {}, "registered_name": null}, "moving_variance_initializer": {"module": "keras.initializers", "class_name": "Ones", "config": {}, "registered_name": null}, "beta_regularizer": null, "gamma_regularizer": null, "beta_constraint": null, "gamma_constraint": null, "synchronized": false}, "name": "block2b_bn", "inbound_nodes": [{"args": [{"class_name": "__keras_tensor__", "config": {"shape": [null, 75, 75, 192], "dtype": "float32", "keras_history": ["block2b_dwconv", 0, 0]}}], "kwargs": {"mask": null}}]}, {"class_name": "Activation", "config": {"name": "block2b_activation", "trainable": false, "dtype": {"module": "keras", "class_name": "DTypePolicy", "config": {"name": "float32"}, "registered_name": null}, "activation": "silu"}, "name": "block2b_activation", "inbound_nodes": [{"args": [{"class_name": "__keras_tensor__", "config": {"shape": [null, 75, 75, 192], "dtype": "float32", "keras_history": ["block2b_bn", 0, 0]}}], "kwargs": {}}]}, {"class_name": "GlobalAveragePooling2D", "config": {"name": "block2b_se_squeeze", "trainable": false, "dtype": {"module": "keras", "class_name": "DTypePolicy", "config": {"name": "float32"}, "registered_name": null}, "data_format": "channels_last", "keepdims": false}, "name": "block2b_se_squeeze", "inbound_nodes": [{"args": [{"class_name": "__keras_tensor__", "config": {"shape": [null, 75, 75, 192], "dtype": "float32", "keras_history": ["block2b_activation", 0, 0]}}], "kwargs": {}}]}, {"class_name": "Reshape", "config": {"name": "block2b_se_reshape", "trainable": false, "dtype": {"module": "keras", "class_name": "DTypePolicy", "config": {"name": "float32"}, "registered_name": null}, "target_shape": [1, 1, 192]}, "name": "block2b_se_reshape", "inbound_nodes": [{"args": [{"class_name": "__keras_tensor__", "config": {"shape": [null, 192], "dtype": "float32", "keras_history": ["block2b_se_squeeze", 0, 0]}}], "kwargs": {}}]}, {"class_name": "Conv2D", "config": {"name": "block2b_se_reduce", "trainable": false, "dtype": {"module": "keras", "class_name": "DTypePolicy", "config": {"name": "float32"}, "registered_name": null}, "filters": 8, "kernel_size": [1, 1], "strides": [1, 1], "padding": "same", "data_format": "channels_last", "dilation_rate": [1, 1], "groups": 1, "activation": "silu", "use_bias": true, "kernel_initializer": {"module": "keras.initializers", "class_name": "VarianceScaling", "config": {"seed": null, "scale": 2.0, "mode": "fan_out", "distribution": "truncated_normal"}, "registered_name": null}, "bias_initializer": {"module": "keras.initializers", "class_name": "Zeros", "config": {}, "registered_name": null}, "kernel_regularizer": null, "bias_regularizer": null, "activity_regularizer": null, "kernel_constraint": null, "bias_constraint": null}, "name": "block2b_se_reduce", "inbound_nodes": [{"args": [{"class_name": "__keras_tensor__", "config": {"shape": [null, 1, 1, 192], "dtype": "float32", "keras_history": ["block2b_se_reshape", 0, 0]}}], "kwargs": {}}]}, {"class_name": "Conv2D", "config": {"name": "block2b_se_expand", "trainable": false, "dtype": {"module": "keras", "class_name": "DTypePolicy", "config": {"name": "float32"}, "registered_name": null}, "filters": 192, "kernel_size": [1, 1], "strides": [1, 1], "padding": "same", "data_format": "channels_last", "dilation_rate": [1, 1], "groups": 1, "activation": "sigmoid", "use_bias": true, "kernel_initializer": {"module": "keras.initializers", "class_name": "VarianceScaling", "config": {"seed": null, "scale": 2.0, "mode": "fan_out", "distribution": "truncated_normal"}, "registered_name": null}, "bias_initializer": {"module": "keras.initializers", "class_name": "Zeros", "config": {}, "registered_name": null}, "kernel_regularizer": null, "bias_regularizer": null, "activity_regularizer": null, "kernel_constraint": null, "bias_constraint": null}, "name": "block2b_se_expand", "inbound_nodes": [{"args": [{"class_name": "__keras_tensor__", "config": {"shape": [null, 1, 1, 8], "dtype": "float32", "keras_history": ["block2b_se_reduce", 0, 0]}}], "kwargs": {}}]}, {"class_name": "Multiply", "config": {"name": "block2b_se_excite", "trainable": false, "dtype": {"module": "keras", "class_name": "DTypePolicy", "config": {"name": "float32"}, "registered_name": null}}, "name": "block2b_se_excite", "inbound_nodes": [{"args": [[{"class_name": "__keras_tensor__", "config": {"shape": [null, 75, 75, 192], "dtype": "float32", "keras_history": ["block2b_activation", 0, 0]}}, {"class_name": "__keras_tensor__", "config": {"shape": [null, 1, 1, 192], "dtype": "float32", "keras_history": ["block2b_se_expand", 0, 0]}}]], "kwargs": {}}]}, {"class_name": "Conv2D", "config": {"name": "block2b_project_conv", "trainable": false, "dtype": {"module": "keras", "class_name": "DTypePolicy", "config": {"name": "float32"}, "registered_name": null}, "filters": 32, "kernel_size": [1, 1], "strides": [1, 1], "padding": "same", "data_format": "channels_last", "dilation_rate": [1, 1], "groups": 1, "activation": "linear", "use_bias": false, "kernel_initializer": {"module": "keras.initializers", "class_name": "VarianceScaling", "config": {"seed": null, "scale": 2.0, "mode": "fan_out", "distribution": "truncated_normal"}, "registered_name": null}, "bias_initializer": {"module": "keras.initializers", "class_name": "Zeros", "config": {}, "registered_name": null}, "kernel_regularizer": null, "bias_regularizer": null, "activity_regularizer": null, "kernel_constraint": null, "bias_constraint": null}, "name": "block2b_project_conv", "inbound_nodes": [{"args": [{"class_name": "__keras_tensor__", "config": {"shape": [null, 75, 75, 192], "dtype": "float32", "keras_history": ["block2b_se_excite", 0, 0]}}], "kwargs": {}}]}, {"class_name": "BatchNormalization", "config": {"name": "block2b_project_bn", "trainable": false, "dtype": {"module": "keras", "class_name": "DTypePolicy", "config": {"name": "float32"}, "registered_name": null}, "axis": 3, "momentum": 0.99, "epsilon": 0.001, "center": true, "scale": true, "beta_initializer": {"module": "keras.initializers", "class_name": "Zeros", "config": {}, "registered_name": null}, "gamma_initializer": {"module": "keras.initializers", "class_name": "Ones", "config": {}, "registered_name": null}, "moving_mean_initializer": {"module": "keras.initializers", "class_name": "Zeros", "config": {}, "registered_name": null}, "moving_variance_initializer": {"module": "keras.initializers", "class_name": "Ones", "config": {}, "registered_name": null}, "beta_regularizer": null, "gamma_regularizer": null, "beta_constraint": null, "gamma_constraint": null, "synchronized": false}, "name": "block2b_project_bn", "inbound_nodes": [{"args": [{"class_name": "__keras_tensor__", "config": {"shape": [null, 75, 75, 32], "dtype": "float32", "keras_history": ["block2b_project_conv", 0, 0]}}], "kwargs": {"mask": null}}]}, {"class_name": "Dropout", "config": {"name": "block2b_drop", "trainable": false, "dtype": {"module": "keras", "class_name": "DTypePolicy", "config": {"name": "float32"}, "registered_name": null}, "rate": 0.02307692307692308, "seed": null, "noise_shape": [null, 1, 1, 1]}, "name": "block2b_drop", "inbound_nodes": [{"args": [{"class_name": "__keras_tensor__", "config": {"shape": [null, 75, 75, 32], "dtype": "float32", "keras_history": ["block2b_project_bn", 0, 0]}}], "kwargs": {"training": false}}]}, {"class_name": "Add", "config": {"name": "block2b_add", "trainable": false, "dtype": {"module": "keras", "class_name": "DTypePolicy", "config": {"name": "float32"}, "registered_name": null}}, "name": "block2b_add", "inbound_nodes": [{"args": [[{"class_name": "__keras_tensor__", "config": {"shape": [null, 75, 75, 32], "dtype": "float32", "keras_history": ["block2b_drop", 0, 0]}}, {"class_name": "__keras_tensor__", "config": {"shape": [null, 75, 75, 32], "dtype": "float32", "keras_history": ["block2a_project_bn", 0, 0]}}]], "kwargs": {}}]}, {"class_name": "Conv2D", "config": {"name": "block2c_expand_conv", "trainable": false, "dtype": {"module": "keras", "class_name": "DTypePolicy", "config": {"name": "float32"}, "registered_name": null}, "filters": 192, "kernel_size": [1, 1], "strides": [1, 1], "padding": "same", "data_format": "channels_last", "dilation_rate": [1, 1], "groups": 1, "activation": "linear", "use_bias": false, "kernel_initializer": {"module": "keras.initializers", "class_name": "VarianceScaling", "config": {"seed": null, "scale": 2.0, "mode": "fan_out", "distribution": "truncated_normal"}, "registered_name": null}, "bias_initializer": {"module": "keras.initializers", "class_name": "Zeros", "config": {}, "registered_name": null}, "kernel_regularizer": null, "bias_regularizer": null, "activity_regularizer": null, "kernel_constraint": null, "bias_constraint": null}, "name": "block2c_expand_conv", "inbound_nodes": [{"args": [{"class_name": "__keras_tensor__", "config": {"shape": [null, 75, 75, 32], "dtype": "float32", "keras_history": ["block2b_add", 0, 0]}}], "kwargs": {}}]}, {"class_name": "BatchNormalization", "config": {"name": "block2c_expand_bn", "trainable": false, "dtype": {"module": "keras", "class_name": "DTypePolicy", "config": {"name": "float32"}, "registered_name": null}, "axis": 3, "momentum": 0.99, "epsilon": 0.001, "center": true, "scale": true, "beta_initializer": {"module": "keras.initializers", "class_name": "Zeros", "config": {}, "registered_name": null}, "gamma_initializer": {"module": "keras.initializers", "class_name": "Ones", "config": {}, "registered_name": null}, "moving_mean_initializer": {"module": "keras.initializers", "class_name": "Zeros", "config": {}, "registered_name": null}, "moving_variance_initializer": {"module": "keras.initializers", "class_name": "Ones", "config": {}, "registered_name": null}, "beta_regularizer": null, "gamma_regularizer": null, "beta_constraint": null, "gamma_constraint": null, "synchronized": false}, "name": "block2c_expand_bn", "inbound_nodes": [{"args": [{"class_name": "__keras_tensor__", "config": {"shape": [null, 75, 75, 192], "dtype": "float32", "keras_history": ["block2c_expand_conv", 0, 0]}}], "kwargs": {"mask": null}}]}, {"class_name": "Activation", "config": {"name": "block2c_expand_activation", "trainable": false, "dtype": {"module": "keras", "class_name": "DTypePolicy", "config": {"name": "float32"}, "registered_name": null}, "activation": "silu"}, "name": "block2c_expand_activation", "inbound_nodes": [{"args": [{"class_name": "__keras_tensor__", "config": {"shape": [null, 75, 75, 192], "dtype": "float32", "keras_history": ["block2c_expand_bn", 0, 0]}}], "kwargs": {}}]}, {"class_name": "DepthwiseConv2D", "config": {"name": "block2c_dwconv", "trainable": false, "dtype": {"module": "keras", "class_name": "DTypePolicy", "config": {"name": "float32"}, "registered_name": null}, "depth_multiplier": 1, "kernel_size": [3, 3], "strides": [1, 1], "padding": "same", "data_format": "channels_last", "dilation_rate": [1, 1], "activation": "linear", "use_bias": false, "depthwise_initializer": {"module": "keras.initializers", "class_name": "VarianceScaling", "config": {"seed": null, "scale": 2.0, "mode": "fan_out", "distribution": "truncated_normal"}, "registered_name": null}, "bias_initializer": {"module": "keras.initializers", "class_name": "Zeros", "config": {}, "registered_name": null}, "depthwise_regularizer": null, "bias_regularizer": null, "activity_regularizer": null, "depthwise_constraint": null, "bias_constraint": null}, "name": "block2c_dwconv", "inbound_nodes": [{"args": [{"class_name": "__keras_tensor__", "config": {"shape": [null, 75, 75, 192], "dtype": "float32", "keras_history": ["block2c_expand_activation", 0, 0]}}], "kwargs": {}}]}, {"class_name": "BatchNormalization", "config": {"name": "block2c_bn", "trainable": false, "dtype": {"module": "keras", "class_name": "DTypePolicy", "config": {"name": "float32"}, "registered_name": null}, "axis": 3, "momentum": 0.99, "epsilon": 0.001, "center": true, "scale": true, "beta_initializer": {"module": "keras.initializers", "class_name": "Zeros", "config": {}, "registered_name": null}, "gamma_initializer": {"module": "keras.initializers", "class_name": "Ones", "config": {}, "registered_name": null}, "moving_mean_initializer": {"module": "keras.initializers", "class_name": "Zeros", "config": {}, "registered_name": null}, "moving_variance_initializer": {"module": "keras.initializers", "class_name": "Ones", "config": {}, "registered_name": null}, "beta_regularizer": null, "gamma_regularizer": null, "beta_constraint": null, "gamma_constraint": null, "synchronized": false}, "name": "block2c_bn", "inbound_nodes": [{"args": [{"class_name": "__keras_tensor__", "config": {"shape": [null, 75, 75, 192], "dtype": "float32", "keras_history": ["block2c_dwconv", 0, 0]}}], "kwargs": {"mask": null}}]}, {"class_name": "Activation", "config": {"name": "block2c_activation", "trainable": false, "dtype": {"module": "keras", "class_name": "DTypePolicy", "config": {"name": "float32"}, "registered_name": null}, "activation": "silu"}, "name": "block2c_activation", "inbound_nodes": [{"args": [{"class_name": "__keras_tensor__", "config": {"shape": [null, 75, 75, 192], "dtype": "float32", "keras_history": ["block2c_bn", 0, 0]}}], "kwargs": {}}]}, {"class_name": "GlobalAveragePooling2D", "config": {"name": "block2c_se_squeeze", "trainable": false, "dtype": {"module": "keras", "class_name": "DTypePolicy", "config": {"name": "float32"}, "registered_name": null}, "data_format": "channels_last", "keepdims": false}, "name": "block2c_se_squeeze", "inbound_nodes": [{"args": [{"class_name": "__keras_tensor__", "config": {"shape": [null, 75, 75, 192], "dtype": "float32", "keras_history": ["block2c_activation", 0, 0]}}], "kwargs": {}}]}, {"class_name": "Reshape", "config": {"name": "block2c_se_reshape", "trainable": false, "dtype": {"module": "keras", "class_name": "DTypePolicy", "config": {"name": "float32"}, "registered_name": null}, "target_shape": [1, 1, 192]}, "name": "block2c_se_reshape", "inbound_nodes": [{"args": [{"class_name": "__keras_tensor__", "config": {"shape": [null, 192], "dtype": "float32", "keras_history": ["block2c_se_squeeze", 0, 0]}}], "kwargs": {}}]}, {"class_name": "Conv2D", "config": {"name": "block2c_se_reduce", "trainable": false, "dtype": {"module": "keras", "class_name": "DTypePolicy", "config": {"name": "float32"}, "registered_name": null}, "filters": 8, "kernel_size": [1, 1], "strides": [1, 1], "padding": "same", "data_format": "channels_last", "dilation_rate": [1, 1], "groups": 1, "activation": "silu", "use_bias": true, "kernel_initializer": {"module": "keras.initializers", "class_name": "VarianceScaling", "config": {"seed": null, "scale": 2.0, "mode": "fan_out", "distribution": "truncated_normal"}, "registered_name": null}, "bias_initializer": {"module": "keras.initializers", "class_name": "Zeros", "config": {}, "registered_name": null}, "kernel_regularizer": null, "bias_regularizer": null, "activity_regularizer": null, "kernel_constraint": null, "bias_constraint": null}, "name": "block2c_se_reduce", "inbound_nodes": [{"args": [{"class_name": "__keras_tensor__", "config": {"shape": [null, 1, 1, 192], "dtype": "float32", "keras_history": ["block2c_se_reshape", 0, 0]}}], "kwargs": {}}]}, {"class_name": "Conv2D", "config": {"name": "block2c_se_expand", "trainable": false, "dtype": {"module": "keras", "class_name": "DTypePolicy", "config": {"name": "float32"}, "registered_name": null}, "filters": 192, "kernel_size": [1, 1], "strides": [1, 1], "padding": "same", "data_format": "channels_last", "dilation_rate": [1, 1], "groups": 1, "activation": "sigmoid", "use_bias": true, "kernel_initializer": {"module": "keras.initializers", "class_name": "VarianceScaling", "config": {"seed": null, "scale": 2.0, "mode": "fan_out", "distribution": "truncated_normal"}, "registered_name": null}, "bias_initializer": {"module": "keras.initializers", "class_name": "Zeros", "config": {}, "registered_name": null}, "kernel_regularizer": null, "bias_regularizer": null, "activity_regularizer": null, "kernel_constraint": null, "bias_constraint": null}, "name": "block2c_se_expand", "inbound_nodes": [{"args": [{"class_name": "__keras_tensor__", "config": {"shape": [null, 1, 1, 8], "dtype": "float32", "keras_history": ["block2c_se_reduce", 0, 0]}}], "kwargs": {}}]}, {"class_name": "Multiply", "config": {"name": "block2c_se_excite", "trainable": false, "dtype": {"module": "keras", "class_name": "DTypePolicy", "config": {"name": "float32"}, "registered_name": null}}, "name": "block2c_se_excite", "inbound_nodes": [{"args": [[{"class_name": "__keras_tensor__", "config": {"shape": [null, 75, 75, 192], "dtype": "float32", "keras_history": ["block2c_activation", 0, 0]}}, {"class_name": "__keras_tensor__", "config": {"shape": [null, 1, 1, 192], "dtype": "float32", "keras_history": ["block2c_se_expand", 0, 0]}}]], "kwargs": {}}]}, {"class_name": "Conv2D", "config": {"name": "block2c_project_conv", "trainable": false, "dtype": {"module": "keras", "class_name": "DTypePolicy", "config": {"name": "float32"}, "registered_name": null}, "filters": 32, "kernel_size": [1, 1], "strides": [1, 1], "padding": "same", "data_format": "channels_last", "dilation_rate": [1, 1], "groups": 1, "activation": "linear", "use_bias": false, "kernel_initializer": {"module": "keras.initializers", "class_name": "VarianceScaling", "config": {"seed": null, "scale": 2.0, "mode": "fan_out", "distribution": "truncated_normal"}, "registered_name": null}, "bias_initializer": {"module": "keras.initializers", "class_name": "Zeros", "config": {}, "registered_name": null}, "kernel_regularizer": null, "bias_regularizer": null, "activity_regularizer": null, "kernel_constraint": null, "bias_constraint": null}, "name": "block2c_project_conv", "inbound_nodes": [{"args": [{"class_name": "__keras_tensor__", "config": {"shape": [null, 75, 75, 192], "dtype": "float32", "keras_history": ["block2c_se_excite", 0, 0]}}], "kwargs": {}}]}, {"class_name": "BatchNormalization", "config": {"name": "block2c_project_bn", "trainable": false, "dtype": {"module": "keras", "class_name": "DTypePolicy", "config": {"name": "float32"}, "registered_name": null}, "axis": 3, "momentum": 0.99, "epsilon": 0.001, "center": true, "scale": true, "beta_initializer": {"module": "keras.initializers", "class_name": "Zeros", "config": {}, "registered_name": null}, "gamma_initializer": {"module": "keras.initializers", "class_name": "Ones", "config": {}, "registered_name": null}, "moving_mean_initializer": {"module": "keras.initializers", "class_name": "Zeros", "config": {}, "registered_name": null}, "moving_variance_initializer": {"module": "keras.initializers", "class_name": "Ones", "config": {}, "registered_name": null}, "beta_regularizer": null, "gamma_regularizer": null, "beta_constraint": null, "gamma_constraint": null, "synchronized": false}, "name": "block2c_project_bn", "inbound_nodes": [{"args": [{"class_name": "__keras_tensor__", "config": {"shape": [null, 75, 75, 32], "dtype": "float32", "keras_history": ["block2c_project_conv", 0, 0]}}], "kwargs": {"mask": null}}]}, {"class_name": "Dropout", "config": {"name": "block2c_drop", "trainable": false, "dtype": {"module": "keras", "class_name": "DTypePolicy", "config": {"name": "float32"}, "registered_name": null}, "rate": 0.03076923076923077, "seed": null, "noise_shape": [null, 1, 1, 1]}, "name": "block2c_drop", "inbound_nodes": [{"args": [{"class_name": "__keras_tensor__", "config": {"shape": [null, 75, 75, 32], "dtype": "float32", "keras_history": ["block2c_project_bn", 0, 0]}}], "kwargs": {"training": false}}]}, {"class_name": "Add", "config": {"name": "block2c_add", "trainable": false, "dtype": {"module": "keras", "class_name": "DTypePolicy", "config": {"name": "float32"}, "registered_name": null}}, "name": "block2c_add", "inbound_nodes": [{"args": [[{"class_name": "__keras_tensor__", "config": {"shape": [null, 75, 75, 32], "dtype": "float32", "keras_history": ["block2c_drop", 0, 0]}}, {"class_name": "__keras_tensor__", "config": {"shape": [null, 75, 75, 32], "dtype": "float32", "keras_history": ["block2b_add", 0, 0]}}]], "kwargs": {}}]}, {"class_name": "Conv2D", "config": {"name": "block3a_expand_conv", "trainable": false, "dtype": {"module": "keras", "class_name": "DTypePolicy", "config": {"name": "float32"}, "registered_name": null}, "filters": 192, "kernel_size": [1, 1], "strides": [1, 1], "padding": "same", "data_format": "channels_last", "dilation_rate": [1, 1], "groups": 1, "activation": "linear", "use_bias": false, "kernel_initializer": {"module": "keras.initializers", "class_name": "VarianceScaling", "config": {"seed": null, "scale": 2.0, "mode": "fan_out", "distribution": "truncated_normal"}, "registered_name": null}, "bias_initializer": {"module": "keras.initializers", "class_name": "Zeros", "config": {}, "registered_name": null}, "kernel_regularizer": null, "bias_regularizer": null, "activity_regularizer": null, "kernel_constraint": null, "bias_constraint": null}, "name": "block3a_expand_conv", "inbound_nodes": [{"args": [{"class_name": "__keras_tensor__", "config": {"shape": [null, 75, 75, 32], "dtype": "float32", "keras_history": ["block2c_add", 0, 0]}}], "kwargs": {}}]}, {"class_name": "BatchNormalization", "config": {"name": "block3a_expand_bn", "trainable": false, "dtype": {"module": "keras", "class_name": "DTypePolicy", "config": {"name": "float32"}, "registered_name": null}, "axis": 3, "momentum": 0.99, "epsilon": 0.001, "center": true, "scale": true, "beta_initializer": {"module": "keras.initializers", "class_name": "Zeros", "config": {}, "registered_name": null}, "gamma_initializer": {"module": "keras.initializers", "class_name": "Ones", "config": {}, "registered_name": null}, "moving_mean_initializer": {"module": "keras.initializers", "class_name": "Zeros", "config": {}, "registered_name": null}, "moving_variance_initializer": {"module": "keras.initializers", "class_name": "Ones", "config": {}, "registered_name": null}, "beta_regularizer": null, "gamma_regularizer": null, "beta_constraint": null, "gamma_constraint": null, "synchronized": false}, "name": "block3a_expand_bn", "inbound_nodes": [{"args": [{"class_name": "__keras_tensor__", "config": {"shape": [null, 75, 75, 192], "dtype": "float32", "keras_history": ["block3a_expand_conv", 0, 0]}}], "kwargs": {"mask": null}}]}, {"class_name": "Activation", "config": {"name": "block3a_expand_activation", "trainable": false, "dtype": {"module": "keras", "class_name": "DTypePolicy", "config": {"name": "float32"}, "registered_name": null}, "activation": "silu"}, "name": "block3a_expand_activation", "inbound_nodes": [{"args": [{"class_name": "__keras_tensor__", "config": {"shape": [null, 75, 75, 192], "dtype": "float32", "keras_history": ["block3a_expand_bn", 0, 0]}}], "kwargs": {}}]}, {"class_name": "ZeroPadding2D", "config": {"name": "block3a_dwconv_pad", "trainable": false, "dtype": {"module": "keras", "class_name": "DTypePolicy", "config": {"name": "float32"}, "registered_name": null}, "padding": [[2, 2], [2, 2]], "data_format": "channels_last"}, "name": "block3a_dwconv_pad", "inbound_nodes": [{"args": [{"class_name": "__keras_tensor__", "config": {"shape": [null, 75, 75, 192], "dtype": "float32", "keras_history": ["block3a_expand_activation", 0, 0]}}], "kwargs": {}}]}, {"class_name": "DepthwiseConv2D", "config": {"name": "block3a_dwconv", "trainable": false, "dtype": {"module": "keras", "class_name": "DTypePolicy", "config": {"name": "float32"}, "registered_name": null}, "depth_multiplier": 1, "kernel_size": [5, 5], "strides": [2, 2], "padding": "valid", "data_format": "channels_last", "dilation_rate": [1, 1], "activation": "linear", "use_bias": false, "depthwise_initializer": {"module": "keras.initializers", "class_name": "VarianceScaling", "config": {"seed": null, "scale": 2.0, "mode": "fan_out", "distribution": "truncated_normal"}, "registered_name": null}, "bias_initializer": {"module": "keras.initializers", "class_name": "Zeros", "config": {}, "registered_name": null}, "depthwise_regularizer": null, "bias_regularizer": null, "activity_regularizer": null, "depthwise_constraint": null, "bias_constraint": null}, "name": "block3a_dwconv", "inbound_nodes": [{"args": [{"class_name": "__keras_tensor__", "config": {"shape": [null, 79, 79, 192], "dtype": "float32", "keras_history": ["block3a_dwconv_pad", 0, 0]}}], "kwargs": {}}]}, {"class_name": "BatchNormalization", "config": {"name": "block3a_bn", "trainable": false, "dtype": {"module": "keras", "class_name": "DTypePolicy", "config": {"name": "float32"}, "registered_name": null}, "axis": 3, "momentum": 0.99, "epsilon": 0.001, "center": true, "scale": true, "beta_initializer": {"module": "keras.initializers", "class_name": "Zeros", "config": {}, "registered_name": null}, "gamma_initializer": {"module": "keras.initializers", "class_name": "Ones", "config": {}, "registered_name": null}, "moving_mean_initializer": {"module": "keras.initializers", "class_name": "Zeros", "config": {}, "registered_name": null}, "moving_variance_initializer": {"module": "keras.initializers", "class_name": "Ones", "config": {}, "registered_name": null}, "beta_regularizer": null, "gamma_regularizer": null, "beta_constraint": null, "gamma_constraint": null, "synchronized": false}, "name": "block3a_bn", "inbound_nodes": [{"args": [{"class_name": "__keras_tensor__", "config": {"shape": [null, 38, 38, 192], "dtype": "float32", "keras_history": ["block3a_dwconv", 0, 0]}}], "kwargs": {"mask": null}}]}, {"class_name": "Activation", "config": {"name": "block3a_activation", "trainable": false, "dtype": {"module": "keras", "class_name": "DTypePolicy", "config": {"name": "float32"}, "registered_name": null}, "activation": "silu"}, "name": "block3a_activation", "inbound_nodes": [{"args": [{"class_name": "__keras_tensor__", "config": {"shape": [null, 38, 38, 192], "dtype": "float32", "keras_history": ["block3a_bn", 0, 0]}}], "kwargs": {}}]}, {"class_name": "GlobalAveragePooling2D", "config": {"name": "block3a_se_squeeze", "trainable": false, "dtype": {"module": "keras", "class_name": "DTypePolicy", "config": {"name": "float32"}, "registered_name": null}, "data_format": "channels_last", "keepdims": false}, "name": "block3a_se_squeeze", "inbound_nodes": [{"args": [{"class_name": "__keras_tensor__", "config": {"shape": [null, 38, 38, 192], "dtype": "float32", "keras_history": ["block3a_activation", 0, 0]}}], "kwargs": {}}]}, {"class_name": "Reshape", "config": {"name": "block3a_se_reshape", "trainable": false, "dtype": {"module": "keras", "class_name": "DTypePolicy", "config": {"name": "float32"}, "registered_name": null}, "target_shape": [1, 1, 192]}, "name": "block3a_se_reshape", "inbound_nodes": [{"args": [{"class_name": "__keras_tensor__", "config": {"shape": [null, 192], "dtype": "float32", "keras_history": ["block3a_se_squeeze", 0, 0]}}], "kwargs": {}}]}, {"class_name": "Conv2D", "config": {"name": "block3a_se_reduce", "trainable": false, "dtype": {"module": "keras", "class_name": "DTypePolicy", "config": {"name": "float32"}, "registered_name": null}, "filters": 8, "kernel_size": [1, 1], "strides": [1, 1], "padding": "same", "data_format": "channels_last", "dilation_rate": [1, 1], "groups": 1, "activation": "silu", "use_bias": true, "kernel_initializer": {"module": "keras.initializers", "class_name": "VarianceScaling", "config": {"seed": null, "scale": 2.0, "mode": "fan_out", "distribution": "truncated_normal"}, "registered_name": null}, "bias_initializer": {"module": "keras.initializers", "class_name": "Zeros", "config": {}, "registered_name": null}, "kernel_regularizer": null, "bias_regularizer": null, "activity_regularizer": null, "kernel_constraint": null, "bias_constraint": null}, "name": "block3a_se_reduce", "inbound_nodes": [{"args": [{"class_name": "__keras_tensor__", "config": {"shape": [null, 1, 1, 192], "dtype": "float32", "keras_history": ["block3a_se_reshape", 0, 0]}}], "kwargs": {}}]}, {"class_name": "Conv2D", "config": {"name": "block3a_se_expand", "trainable": false, "dtype": {"module": "keras", "class_name": "DTypePolicy", "config": {"name": "float32"}, "registered_name": null}, "filters": 192, "kernel_size": [1, 1], "strides": [1, 1], "padding": "same", "data_format": "channels_last", "dilation_rate": [1, 1], "groups": 1, "activation": "sigmoid", "use_bias": true, "kernel_initializer": {"module": "keras.initializers", "class_name": "VarianceScaling", "config": {"seed": null, "scale": 2.0, "mode": "fan_out", "distribution": "truncated_normal"}, "registered_name": null}, "bias_initializer": {"module": "keras.initializers", "class_name": "Zeros", "config": {}, "registered_name": null}, "kernel_regularizer": null, "bias_regularizer": null, "activity_regularizer": null, "kernel_constraint": null, "bias_constraint": null}, "name": "block3a_se_expand", "inbound_nodes": [{"args": [{"class_name": "__keras_tensor__", "config": {"shape": [null, 1, 1, 8], "dtype": "float32", "keras_history": ["block3a_se_reduce", 0, 0]}}], "kwargs": {}}]}, {"class_name": "Multiply", "config": {"name": "block3a_se_excite", "trainable": false, "dtype": {"module": "keras", "class_name": "DTypePolicy", "config": {"name": "float32"}, "registered_name": null}}, "name": "block3a_se_excite", "inbound_nodes": [{"args": [[{"class_name": "__keras_tensor__", "config": {"shape": [null, 38, 38, 192], "dtype": "float32", "keras_history": ["block3a_activation", 0, 0]}}, {"class_name": "__keras_tensor__", "config": {"shape": [null, 1, 1, 192], "dtype": "float32", "keras_history": ["block3a_se_expand", 0, 0]}}]], "kwargs": {}}]}, {"class_name": "Conv2D", "config": {"name": "block3a_project_conv", "trainable": false, "dtype": {"module": "keras", "class_name": "DTypePolicy", "config": {"name": "float32"}, "registered_name": null}, "filters": 48, "kernel_size": [1, 1], "strides": [1, 1], "padding": "same", "data_format": "channels_last", "dilation_rate": [1, 1], "groups": 1, "activation": "linear", "use_bias": false, "kernel_initializer": {"module": "keras.initializers", "class_name": "VarianceScaling", "config": {"seed": null, "scale": 2.0, "mode": "fan_out", "distribution": "truncated_normal"}, "registered_name": null}, "bias_initializer": {"module": "keras.initializers", "class_name": "Zeros", "config": {}, "registered_name": null}, "kernel_regularizer": null, "bias_regularizer": null, "activity_regularizer": null, "kernel_constraint": null, "bias_constraint": null}, "name": "block3a_project_conv", "inbound_nodes": [{"args": [{"class_name": "__keras_tensor__", "config": {"shape": [null, 38, 38, 192], "dtype": "float32", "keras_history": ["block3a_se_excite", 0, 0]}}], "kwargs": {}}]}, {"class_name": "BatchNormalization", "config": {"name": "block3a_project_bn", "trainable": false, "dtype": {"module": "keras", "class_name": "DTypePolicy", "config": {"name": "float32"}, "registered_name": null}, "axis": 3, "momentum": 0.99, "epsilon": 0.001, "center": true, "scale": true, "beta_initializer": {"module": "keras.initializers", "class_name": "Zeros", "config": {}, "registered_name": null}, "gamma_initializer": {"module": "keras.initializers", "class_name": "Ones", "config": {}, "registered_name": null}, "moving_mean_initializer": {"module": "keras.initializers", "class_name": "Zeros", "config": {}, "registered_name": null}, "moving_variance_initializer": {"module": "keras.initializers", "class_name": "Ones", "config": {}, "registered_name": null}, "beta_regularizer": null, "gamma_regularizer": null, "beta_constraint": null, "gamma_constraint": null, "synchronized": false}, "name": "block3a_project_bn", "inbound_nodes": [{"args": [{"class_name": "__keras_tensor__", "config": {"shape": [null, 38, 38, 48], "dtype": "float32", "keras_history": ["block3a_project_conv", 0, 0]}}], "kwargs": {"mask": null}}]}, {"class_name": "Conv2D", "config": {"name": "block3b_expand_conv", "trainable": false, "dtype": {"module": "keras", "class_name": "DTypePolicy", "config": {"name": "float32"}, "registered_name": null}, "filters": 288, "kernel_size": [1, 1], "strides": [1, 1], "padding": "same", "data_format": "channels_last", "dilation_rate": [1, 1], "groups": 1, "activation": "linear", "use_bias": false, "kernel_initializer": {"module": "keras.initializers", "class_name": "VarianceScaling", "config": {"seed": null, "scale": 2.0, "mode": "fan_out", "distribution": "truncated_normal"}, "registered_name": null}, "bias_initializer": {"module": "keras.initializers", "class_name": "Zeros", "config": {}, "registered_name": null}, "kernel_regularizer": null, "bias_regularizer": null, "activity_regularizer": null, "kernel_constraint": null, "bias_constraint": null}, "name": "block3b_expand_conv", "inbound_nodes": [{"args": [{"class_name": "__keras_tensor__", "config": {"shape": [null, 38, 38, 48], "dtype": "float32", "keras_history": ["block3a_project_bn", 0, 0]}}], "kwargs": {}}]}, {"class_name": "BatchNormalization", "config": {"name": "block3b_expand_bn", "trainable": false, "dtype": {"module": "keras", "class_name": "DTypePolicy", "config": {"name": "float32"}, "registered_name": null}, "axis": 3, "momentum": 0.99, "epsilon": 0.001, "center": true, "scale": true, "beta_initializer": {"module": "keras.initializers", "class_name": "Zeros", "config": {}, "registered_name": null}, "gamma_initializer": {"module": "keras.initializers", "class_name": "Ones", "config": {}, "registered_name": null}, "moving_mean_initializer": {"module": "keras.initializers", "class_name": "Zeros", "config": {}, "registered_name": null}, "moving_variance_initializer": {"module": "keras.initializers", "class_name": "Ones", "config": {}, "registered_name": null}, "beta_regularizer": null, "gamma_regularizer": null, "beta_constraint": null, "gamma_constraint": null, "synchronized": false}, "name": "block3b_expand_bn", "inbound_nodes": [{"args": [{"class_name": "__keras_tensor__", "config": {"shape": [null, 38, 38, 288], "dtype": "float32", "keras_history": ["block3b_expand_conv", 0, 0]}}], "kwargs": {"mask": null}}]}, {"class_name": "Activation", "config": {"name": "block3b_expand_activation", "trainable": false, "dtype": {"module": "keras", "class_name": "DTypePolicy", "config": {"name": "float32"}, "registered_name": null}, "activation": "silu"}, "name": "block3b_expand_activation", "inbound_nodes": [{"args": [{"class_name": "__keras_tensor__", "config": {"shape": [null, 38, 38, 288], "dtype": "float32", "keras_history": ["block3b_expand_bn", 0, 0]}}], "kwargs": {}}]}, {"class_name": "DepthwiseConv2D", "config": {"name": "block3b_dwconv", "trainable": false, "dtype": {"module": "keras", "class_name": "DTypePolicy", "config": {"name": "float32"}, "registered_name": null}, "depth_multiplier": 1, "kernel_size": [5, 5], "strides": [1, 1], "padding": "same", "data_format": "channels_last", "dilation_rate": [1, 1], "activation": "linear", "use_bias": false, "depthwise_initializer": {"module": "keras.initializers", "class_name": "VarianceScaling", "config": {"seed": null, "scale": 2.0, "mode": "fan_out", "distribution": "truncated_normal"}, "registered_name": null}, "bias_initializer": {"module": "keras.initializers", "class_name": "Zeros", "config": {}, "registered_name": null}, "depthwise_regularizer": null, "bias_regularizer": null, "activity_regularizer": null, "depthwise_constraint": null, "bias_constraint": null}, "name": "block3b_dwconv", "inbound_nodes": [{"args": [{"class_name": "__keras_tensor__", "config": {"shape": [null, 38, 38, 288], "dtype": "float32", "keras_history": ["block3b_expand_activation", 0, 0]}}], "kwargs": {}}]}, {"class_name": "BatchNormalization", "config": {"name": "block3b_bn", "trainable": false, "dtype": {"module": "keras", "class_name": "DTypePolicy", "config": {"name": "float32"}, "registered_name": null}, "axis": 3, "momentum": 0.99, "epsilon": 0.001, "center": true, "scale": true, "beta_initializer": {"module": "keras.initializers", "class_name": "Zeros", "config": {}, "registered_name": null}, "gamma_initializer": {"module": "keras.initializers", "class_name": "Ones", "config": {}, "registered_name": null}, "moving_mean_initializer": {"module": "keras.initializers", "class_name": "Zeros", "config": {}, "registered_name": null}, "moving_variance_initializer": {"module": "keras.initializers", "class_name": "Ones", "config": {}, "registered_name": null}, "beta_regularizer": null, "gamma_regularizer": null, "beta_constraint": null, "gamma_constraint": null, "synchronized": false}, "name": "block3b_bn", "inbound_nodes": [{"args": [{"class_name": "__keras_tensor__", "config": {"shape": [null, 38, 38, 288], "dtype": "float32", "keras_history": ["block3b_dwconv", 0, 0]}}], "kwargs": {"mask": null}}]}, {"class_name": "Activation", "config": {"name": "block3b_activation", "trainable": false, "dtype": {"module": "keras", "class_name": "DTypePolicy", "config": {"name": "float32"}, "registered_name": null}, "activation": "silu"}, "name": "block3b_activation", "inbound_nodes": [{"args": [{"class_name": "__keras_tensor__", "config": {"shape": [null, 38, 38, 288], "dtype": "float32", "keras_history": ["block3b_bn", 0, 0]}}], "kwargs": {}}]}, {"class_name": "GlobalAveragePooling2D", "config": {"name": "block3b_se_squeeze", "trainable": false, "dtype": {"module": "keras", "class_name": "DTypePolicy", "config": {"name": "float32"}, "registered_name": null}, "data_format": "channels_last", "keepdims": false}, "name": "block3b_se_squeeze", "inbound_nodes": [{"args": [{"class_name": "__keras_tensor__", "config": {"shape": [null, 38, 38, 288], "dtype": "float32", "keras_history": ["block3b_activation", 0, 0]}}], "kwargs": {}}]}, {"class_name": "Reshape", "config": {"name": "block3b_se_reshape", "trainable": false, "dtype": {"module": "keras", "class_name": "DTypePolicy", "config": {"name": "float32"}, "registered_name": null}, "target_shape": [1, 1, 288]}, "name": "block3b_se_reshape", "inbound_nodes": [{"args": [{"class_name": "__keras_tensor__", "config": {"shape": [null, 288], "dtype": "float32", "keras_history": ["block3b_se_squeeze", 0, 0]}}], "kwargs": {}}]}, {"class_name": "Conv2D", "config": {"name": "block3b_se_reduce", "trainable": false, "dtype": {"module": "keras", "class_name": "DTypePolicy", "config": {"name": "float32"}, "registered_name": null}, "filters": 12, "kernel_size": [1, 1], "strides": [1, 1], "padding": "same", "data_format": "channels_last", "dilation_rate": [1, 1], "groups": 1, "activation": "silu", "use_bias": true, "kernel_initializer": {"module": "keras.initializers", "class_name": "VarianceScaling", "config": {"seed": null, "scale": 2.0, "mode": "fan_out", "distribution": "truncated_normal"}, "registered_name": null}, "bias_initializer": {"module": "keras.initializers", "class_name": "Zeros", "config": {}, "registered_name": null}, "kernel_regularizer": null, "bias_regularizer": null, "activity_regularizer": null, "kernel_constraint": null, "bias_constraint": null}, "name": "block3b_se_reduce", "inbound_nodes": [{"args": [{"class_name": "__keras_tensor__", "config": {"shape": [null, 1, 1, 288], "dtype": "float32", "keras_history": ["block3b_se_reshape", 0, 0]}}], "kwargs": {}}]}, {"class_name": "Conv2D", "config": {"name": "block3b_se_expand", "trainable": false, "dtype": {"module": "keras", "class_name": "DTypePolicy", "config": {"name": "float32"}, "registered_name": null}, "filters": 288, "kernel_size": [1, 1], "strides": [1, 1], "padding": "same", "data_format": "channels_last", "dilation_rate": [1, 1], "groups": 1, "activation": "sigmoid", "use_bias": true, "kernel_initializer": {"module": "keras.initializers", "class_name": "VarianceScaling", "config": {"seed": null, "scale": 2.0, "mode": "fan_out", "distribution": "truncated_normal"}, "registered_name": null}, "bias_initializer": {"module": "keras.initializers", "class_name": "Zeros", "config": {}, "registered_name": null}, "kernel_regularizer": null, "bias_regularizer": null, "activity_regularizer": null, "kernel_constraint": null, "bias_constraint": null}, "name": "block3b_se_expand", "inbound_nodes": [{"args": [{"class_name": "__keras_tensor__", "config": {"shape": [null, 1, 1, 12], "dtype": "float32", "keras_history": ["block3b_se_reduce", 0, 0]}}], "kwargs": {}}]}, {"class_name": "Multiply", "config": {"name": "block3b_se_excite", "trainable": false, "dtype": {"module": "keras", "class_name": "DTypePolicy", "config": {"name": "float32"}, "registered_name": null}}, "name": "block3b_se_excite", "inbound_nodes": [{"args": [[{"class_name": "__keras_tensor__", "config": {"shape": [null, 38, 38, 288], "dtype": "float32", "keras_history": ["block3b_activation", 0, 0]}}, {"class_name": "__keras_tensor__", "config": {"shape": [null, 1, 1, 288], "dtype": "float32", "keras_history": ["block3b_se_expand", 0, 0]}}]], "kwargs": {}}]}, {"class_name": "Conv2D", "config": {"name": "block3b_project_conv", "trainable": false, "dtype": {"module": "keras", "class_name": "DTypePolicy", "config": {"name": "float32"}, "registered_name": null}, "filters": 48, "kernel_size": [1, 1], "strides": [1, 1], "padding": "same", "data_format": "channels_last", "dilation_rate": [1, 1], "groups": 1, "activation": "linear", "use_bias": false, "kernel_initializer": {"module": "keras.initializers", "class_name": "VarianceScaling", "config": {"seed": null, "scale": 2.0, "mode": "fan_out", "distribution": "truncated_normal"}, "registered_name": null}, "bias_initializer": {"module": "keras.initializers", "class_name": "Zeros", "config": {}, "registered_name": null}, "kernel_regularizer": null, "bias_regularizer": null, "activity_regularizer": null, "kernel_constraint": null, "bias_constraint": null}, "name": "block3b_project_conv", "inbound_nodes": [{"args": [{"class_name": "__keras_tensor__", "config": {"shape": [null, 38, 38, 288], "dtype": "float32", "keras_history": ["block3b_se_excite", 0, 0]}}], "kwargs": {}}]}, {"class_name": "BatchNormalization", "config": {"name": "block3b_project_bn", "trainable": false, "dtype": {"module": "keras", "class_name": "DTypePolicy", "config": {"name": "float32"}, "registered_name": null}, "axis": 3, "momentum": 0.99, "epsilon": 0.001, "center": true, "scale": true, "beta_initializer": {"module": "keras.initializers", "class_name": "Zeros", "config": {}, "registered_name": null}, "gamma_initializer": {"module": "keras.initializers", "class_name": "Ones", "config": {}, "registered_name": null}, "moving_mean_initializer": {"module": "keras.initializers", "class_name": "Zeros", "config": {}, "registered_name": null}, "moving_variance_initializer": {"module": "keras.initializers", "class_name": "Ones", "config": {}, "registered_name": null}, "beta_regularizer": null, "gamma_regularizer": null, "beta_constraint": null, "gamma_constraint": null, "synchronized": false}, "name": "block3b_project_bn", "inbound_nodes": [{"args": [{"class_name": "__keras_tensor__", "config": {"shape": [null, 38, 38, 48], "dtype": "float32", "keras_history": ["block3b_project_conv", 0, 0]}}], "kwargs": {"mask": null}}]}, {"class_name": "Dropout", "config": {"name": "block3b_drop", "trainable": false, "dtype": {"module": "keras", "class_name": "DTypePolicy", "config": {"name": "float32"}, "registered_name": null}, "rate": 0.04615384615384616, "seed": null, "noise_shape": [null, 1, 1, 1]}, "name": "block3b_drop", "inbound_nodes": [{"args": [{"class_name": "__keras_tensor__", "config": {"shape": [null, 38, 38, 48], "dtype": "float32", "keras_history": ["block3b_project_bn", 0, 0]}}], "kwargs": {"training": false}}]}, {"class_name": "Add", "config": {"name": "block3b_add", "trainable": false, "dtype": {"module": "keras", "class_name": "DTypePolicy", "config": {"name": "float32"}, "registered_name": null}}, "name": "block3b_add", "inbound_nodes": [{"args": [[{"class_name": "__keras_tensor__", "config": {"shape": [null, 38, 38, 48], "dtype": "float32", "keras_history": ["block3b_drop", 0, 0]}}, {"class_name": "__keras_tensor__", "config": {"shape": [null, 38, 38, 48], "dtype": "float32", "keras_history": ["block3a_project_bn", 0, 0]}}]], "kwargs": {}}]}, {"class_name": "Conv2D", "config": {"name": "block3c_expand_conv", "trainable": false, "dtype": {"module": "keras", "class_name": "DTypePolicy", "config": {"name": "float32"}, "registered_name": null}, "filters": 288, "kernel_size": [1, 1], "strides": [1, 1], "padding": "same", "data_format": "channels_last", "dilation_rate": [1, 1], "groups": 1, "activation": "linear", "use_bias": false, "kernel_initializer": {"module": "keras.initializers", "class_name": "VarianceScaling", "config": {"seed": null, "scale": 2.0, "mode": "fan_out", "distribution": "truncated_normal"}, "registered_name": null}, "bias_initializer": {"module": "keras.initializers", "class_name": "Zeros", "config": {}, "registered_name": null}, "kernel_regularizer": null, "bias_regularizer": null, "activity_regularizer": null, "kernel_constraint": null, "bias_constraint": null}, "name": "block3c_expand_conv", "inbound_nodes": [{"args": [{"class_name": "__keras_tensor__", "config": {"shape": [null, 38, 38, 48], "dtype": "float32", "keras_history": ["block3b_add", 0, 0]}}], "kwargs": {}}]}, {"class_name": "BatchNormalization", "config": {"name": "block3c_expand_bn", "trainable": false, "dtype": {"module": "keras", "class_name": "DTypePolicy", "config": {"name": "float32"}, "registered_name": null}, "axis": 3, "momentum": 0.99, "epsilon": 0.001, "center": true, "scale": true, "beta_initializer": {"module": "keras.initializers", "class_name": "Zeros", "config": {}, "registered_name": null}, "gamma_initializer": {"module": "keras.initializers", "class_name": "Ones", "config": {}, "registered_name": null}, "moving_mean_initializer": {"module": "keras.initializers", "class_name": "Zeros", "config": {}, "registered_name": null}, "moving_variance_initializer": {"module": "keras.initializers", "class_name": "Ones", "config": {}, "registered_name": null}, "beta_regularizer": null, "gamma_regularizer": null, "beta_constraint": null, "gamma_constraint": null, "synchronized": false}, "name": "block3c_expand_bn", "inbound_nodes": [{"args": [{"class_name": "__keras_tensor__", "config": {"shape": [null, 38, 38, 288], "dtype": "float32", "keras_history": ["block3c_expand_conv", 0, 0]}}], "kwargs": {"mask": null}}]}, {"class_name": "Activation", "config": {"name": "block3c_expand_activation", "trainable": false, "dtype": {"module": "keras", "class_name": "DTypePolicy", "config": {"name": "float32"}, "registered_name": null}, "activation": "silu"}, "name": "block3c_expand_activation", "inbound_nodes": [{"args": [{"class_name": "__keras_tensor__", "config": {"shape": [null, 38, 38, 288], "dtype": "float32", "keras_history": ["block3c_expand_bn", 0, 0]}}], "kwargs": {}}]}, {"class_name": "DepthwiseConv2D", "config": {"name": "block3c_dwconv", "trainable": false, "dtype": {"module": "keras", "class_name": "DTypePolicy", "config": {"name": "float32"}, "registered_name": null}, "depth_multiplier": 1, "kernel_size": [5, 5], "strides": [1, 1], "padding": "same", "data_format": "channels_last", "dilation_rate": [1, 1], "activation": "linear", "use_bias": false, "depthwise_initializer": {"module": "keras.initializers", "class_name": "VarianceScaling", "config": {"seed": null, "scale": 2.0, "mode": "fan_out", "distribution": "truncated_normal"}, "registered_name": null}, "bias_initializer": {"module": "keras.initializers", "class_name": "Zeros", "config": {}, "registered_name": null}, "depthwise_regularizer": null, "bias_regularizer": null, "activity_regularizer": null, "depthwise_constraint": null, "bias_constraint": null}, "name": "block3c_dwconv", "inbound_nodes": [{"args": [{"class_name": "__keras_tensor__", "config": {"shape": [null, 38, 38, 288], "dtype": "float32", "keras_history": ["block3c_expand_activation", 0, 0]}}], "kwargs": {}}]}, {"class_name": "BatchNormalization", "config": {"name": "block3c_bn", "trainable": false, "dtype": {"module": "keras", "class_name": "DTypePolicy", "config": {"name": "float32"}, "registered_name": null}, "axis": 3, "momentum": 0.99, "epsilon": 0.001, "center": true, "scale": true, "beta_initializer": {"module": "keras.initializers", "class_name": "Zeros", "config": {}, "registered_name": null}, "gamma_initializer": {"module": "keras.initializers", "class_name": "Ones", "config": {}, "registered_name": null}, "moving_mean_initializer": {"module": "keras.initializers", "class_name": "Zeros", "config": {}, "registered_name": null}, "moving_variance_initializer": {"module": "keras.initializers", "class_name": "Ones", "config": {}, "registered_name": null}, "beta_regularizer": null, "gamma_regularizer": null, "beta_constraint": null, "gamma_constraint": null, "synchronized": false}, "name": "block3c_bn", "inbound_nodes": [{"args": [{"class_name": "__keras_tensor__", "config": {"shape": [null, 38, 38, 288], "dtype": "float32", "keras_history": ["block3c_dwconv", 0, 0]}}], "kwargs": {"mask": null}}]}, {"class_name": "Activation", "config": {"name": "block3c_activation", "trainable": false, "dtype": {"module": "keras", "class_name": "DTypePolicy", "config": {"name": "float32"}, "registered_name": null}, "activation": "silu"}, "name": "block3c_activation", "inbound_nodes": [{"args": [{"class_name": "__keras_tensor__", "config": {"shape": [null, 38, 38, 288], "dtype": "float32", "keras_history": ["block3c_bn", 0, 0]}}], "kwargs": {}}]}, {"class_name": "GlobalAveragePooling2D", "config": {"name": "block3c_se_squeeze", "trainable": false, "dtype": {"module": "keras", "class_name": "DTypePolicy", "config": {"name": "float32"}, "registered_name": null}, "data_format": "channels_last", "keepdims": false}, "name": "block3c_se_squeeze", "inbound_nodes": [{"args": [{"class_name": "__keras_tensor__", "config": {"shape": [null, 38, 38, 288], "dtype": "float32", "keras_history": ["block3c_activation", 0, 0]}}], "kwargs": {}}]}, {"class_name": "Reshape", "config": {"name": "block3c_se_reshape", "trainable": false, "dtype": {"module": "keras", "class_name": "DTypePolicy", "config": {"name": "float32"}, "registered_name": null}, "target_shape": [1, 1, 288]}, "name": "block3c_se_reshape", "inbound_nodes": [{"args": [{"class_name": "__keras_tensor__", "config": {"shape": [null, 288], "dtype": "float32", "keras_history": ["block3c_se_squeeze", 0, 0]}}], "kwargs": {}}]}, {"class_name": "Conv2D", "config": {"name": "block3c_se_reduce", "trainable": false, "dtype": {"module": "keras", "class_name": "DTypePolicy", "config": {"name": "float32"}, "registered_name": null}, "filters": 12, "kernel_size": [1, 1], "strides": [1, 1], "padding": "same", "data_format": "channels_last", "dilation_rate": [1, 1], "groups": 1, "activation": "silu", "use_bias": true, "kernel_initializer": {"module": "keras.initializers", "class_name": "VarianceScaling", "config": {"seed": null, "scale": 2.0, "mode": "fan_out", "distribution": "truncated_normal"}, "registered_name": null}, "bias_initializer": {"module": "keras.initializers", "class_name": "Zeros", "config": {}, "registered_name": null}, "kernel_regularizer": null, "bias_regularizer": null, "activity_regularizer": null, "kernel_constraint": null, "bias_constraint": null}, "name": "block3c_se_reduce", "inbound_nodes": [{"args": [{"class_name": "__keras_tensor__", "config": {"shape": [null, 1, 1, 288], "dtype": "float32", "keras_history": ["block3c_se_reshape", 0, 0]}}], "kwargs": {}}]}, {"class_name": "Conv2D", "config": {"name": "block3c_se_expand", "trainable": false, "dtype": {"module": "keras", "class_name": "DTypePolicy", "config": {"name": "float32"}, "registered_name": null}, "filters": 288, "kernel_size": [1, 1], "strides": [1, 1], "padding": "same", "data_format": "channels_last", "dilation_rate": [1, 1], "groups": 1, "activation": "sigmoid", "use_bias": true, "kernel_initializer": {"module": "keras.initializers", "class_name": "VarianceScaling", "config": {"seed": null, "scale": 2.0, "mode": "fan_out", "distribution": "truncated_normal"}, "registered_name": null}, "bias_initializer": {"module": "keras.initializers", "class_name": "Zeros", "config": {}, "registered_name": null}, "kernel_regularizer": null, "bias_regularizer": null, "activity_regularizer": null, "kernel_constraint": null, "bias_constraint": null}, "name": "block3c_se_expand", "inbound_nodes": [{"args": [{"class_name": "__keras_tensor__", "config": {"shape": [null, 1, 1, 12], "dtype": "float32", "keras_history": ["block3c_se_reduce", 0, 0]}}], "kwargs": {}}]}, {"class_name": "Multiply", "config": {"name": "block3c_se_excite", "trainable": false, "dtype": {"module": "keras", "class_name": "DTypePolicy", "config": {"name": "float32"}, "registered_name": null}}, "name": "block3c_se_excite", "inbound_nodes": [{"args": [[{"class_name": "__keras_tensor__", "config": {"shape": [null, 38, 38, 288], "dtype": "float32", "keras_history": ["block3c_activation", 0, 0]}}, {"class_name": "__keras_tensor__", "config": {"shape": [null, 1, 1, 288], "dtype": "float32", "keras_history": ["block3c_se_expand", 0, 0]}}]], "kwargs": {}}]}, {"class_name": "Conv2D", "config": {"name": "block3c_project_conv", "trainable": false, "dtype": {"module": "keras", "class_name": "DTypePolicy", "config": {"name": "float32"}, "registered_name": null}, "filters": 48, "kernel_size": [1, 1], "strides": [1, 1], "padding": "same", "data_format": "channels_last", "dilation_rate": [1, 1], "groups": 1, "activation": "linear", "use_bias": false, "kernel_initializer": {"module": "keras.initializers", "class_name": "VarianceScaling", "config": {"seed": null, "scale": 2.0, "mode": "fan_out", "distribution": "truncated_normal"}, "registered_name": null}, "bias_initializer": {"module": "keras.initializers", "class_name": "Zeros", "config": {}, "registered_name": null}, "kernel_regularizer": null, "bias_regularizer": null, "activity_regularizer": null, "kernel_constraint": null, "bias_constraint": null}, "name": "block3c_project_conv", "inbound_nodes": [{"args": [{"class_name": "__keras_tensor__", "config": {"shape": [null, 38, 38, 288], "dtype": "float32", "keras_history": ["block3c_se_excite", 0, 0]}}], "kwargs": {}}]}, {"class_name": "BatchNormalization", "config": {"name": "block3c_project_bn", "trainable": false, "dtype": {"module": "keras", "class_name": "DTypePolicy", "config": {"name": "float32"}, "registered_name": null}, "axis": 3, "momentum": 0.99, "epsilon": 0.001, "center": true, "scale": true, "beta_initializer": {"module": "keras.initializers", "class_name": "Zeros", "config": {}, "registered_name": null}, "gamma_initializer": {"module": "keras.initializers", "class_name": "Ones", "config": {}, "registered_name": null}, "moving_mean_initializer": {"module": "keras.initializers", "class_name": "Zeros", "config": {}, "registered_name": null}, "moving_variance_initializer": {"module": "keras.initializers", "class_name": "Ones", "config": {}, "registered_name": null}, "beta_regularizer": null, "gamma_regularizer": null, "beta_constraint": null, "gamma_constraint": null, "synchronized": false}, "name": "block3c_project_bn", "inbound_nodes": [{"args": [{"class_name": "__keras_tensor__", "config": {"shape": [null, 38, 38, 48], "dtype": "float32", "keras_history": ["block3c_project_conv", 0, 0]}}], "kwargs": {"mask": null}}]}, {"class_name": "Dropout", "config": {"name": "block3c_drop", "trainable": false, "dtype": {"module": "keras", "class_name": "DTypePolicy", "config": {"name": "float32"}, "registered_name": null}, "rate": 0.05384615384615385, "seed": null, "noise_shape": [null, 1, 1, 1]}, "name": "block3c_drop", "inbound_nodes": [{"args": [{"class_name": "__keras_tensor__", "config": {"shape": [null, 38, 38, 48], "dtype": "float32", "keras_history": ["block3c_project_bn", 0, 0]}}], "kwargs": {"training": false}}]}, {"class_name": "Add", "config": {"name": "block3c_add", "trainable": false, "dtype": {"module": "keras", "class_name": "DTypePolicy", "config": {"name": "float32"}, "registered_name": null}}, "name": "block3c_add", "inbound_nodes": [{"args": [[{"class_name": "__keras_tensor__", "config": {"shape": [null, 38, 38, 48], "dtype": "float32", "keras_history": ["block3c_drop", 0, 0]}}, {"class_name": "__keras_tensor__", "config": {"shape": [null, 38, 38, 48], "dtype": "float32", "keras_history": ["block3b_add", 0, 0]}}]], "kwargs": {}}]}, {"class_name": "Conv2D", "config": {"name": "block4a_expand_conv", "trainable": false, "dtype": {"module": "keras", "class_name": "DTypePolicy", "config": {"name": "float32"}, "registered_name": null}, "filters": 288, "kernel_size": [1, 1], "strides": [1, 1], "padding": "same", "data_format": "channels_last", "dilation_rate": [1, 1], "groups": 1, "activation": "linear", "use_bias": false, "kernel_initializer": {"module": "keras.initializers", "class_name": "VarianceScaling", "config": {"seed": null, "scale": 2.0, "mode": "fan_out", "distribution": "truncated_normal"}, "registered_name": null}, "bias_initializer": {"module": "keras.initializers", "class_name": "Zeros", "config": {}, "registered_name": null}, "kernel_regularizer": null, "bias_regularizer": null, "activity_regularizer": null, "kernel_constraint": null, "bias_constraint": null}, "name": "block4a_expand_conv", "inbound_nodes": [{"args": [{"class_name": "__keras_tensor__", "config": {"shape": [null, 38, 38, 48], "dtype": "float32", "keras_history": ["block3c_add", 0, 0]}}], "kwargs": {}}]}, {"class_name": "BatchNormalization", "config": {"name": "block4a_expand_bn", "trainable": false, "dtype": {"module": "keras", "class_name": "DTypePolicy", "config": {"name": "float32"}, "registered_name": null}, "axis": 3, "momentum": 0.99, "epsilon": 0.001, "center": true, "scale": true, "beta_initializer": {"module": "keras.initializers", "class_name": "Zeros", "config": {}, "registered_name": null}, "gamma_initializer": {"module": "keras.initializers", "class_name": "Ones", "config": {}, "registered_name": null}, "moving_mean_initializer": {"module": "keras.initializers", "class_name": "Zeros", "config": {}, "registered_name": null}, "moving_variance_initializer": {"module": "keras.initializers", "class_name": "Ones", "config": {}, "registered_name": null}, "beta_regularizer": null, "gamma_regularizer": null, "beta_constraint": null, "gamma_constraint": null, "synchronized": false}, "name": "block4a_expand_bn", "inbound_nodes": [{"args": [{"class_name": "__keras_tensor__", "config": {"shape": [null, 38, 38, 288], "dtype": "float32", "keras_history": ["block4a_expand_conv", 0, 0]}}], "kwargs": {"mask": null}}]}, {"class_name": "Activation", "config": {"name": "block4a_expand_activation", "trainable": false, "dtype": {"module": "keras", "class_name": "DTypePolicy", "config": {"name": "float32"}, "registered_name": null}, "activation": "silu"}, "name": "block4a_expand_activation", "inbound_nodes": [{"args": [{"class_name": "__keras_tensor__", "config": {"shape": [null, 38, 38, 288], "dtype": "float32", "keras_history": ["block4a_expand_bn", 0, 0]}}], "kwargs": {}}]}, {"class_name": "ZeroPadding2D", "config": {"name": "block4a_dwconv_pad", "trainable": false, "dtype": {"module": "keras", "class_name": "DTypePolicy", "config": {"name": "float32"}, "registered_name": null}, "padding": [[0, 1], [0, 1]], "data_format": "channels_last"}, "name": "block4a_dwconv_pad", "inbound_nodes": [{"args": [{"class_name": "__keras_tensor__", "config": {"shape": [null, 38, 38, 288], "dtype": "float32", "keras_history": ["block4a_expand_activation", 0, 0]}}], "kwargs": {}}]}, {"class_name": "DepthwiseConv2D", "config": {"name": "block4a_dwconv", "trainable": false, "dtype": {"module": "keras", "class_name": "DTypePolicy", "config": {"name": "float32"}, "registered_name": null}, "depth_multiplier": 1, "kernel_size": [3, 3], "strides": [2, 2], "padding": "valid", "data_format": "channels_last", "dilation_rate": [1, 1], "activation": "linear", "use_bias": false, "depthwise_initializer": {"module": "keras.initializers", "class_name": "VarianceScaling", "config": {"seed": null, "scale": 2.0, "mode": "fan_out", "distribution": "truncated_normal"}, "registered_name": null}, "bias_initializer": {"module": "keras.initializers", "class_name": "Zeros", "config": {}, "registered_name": null}, "depthwise_regularizer": null, "bias_regularizer": null, "activity_regularizer": null, "depthwise_constraint": null, "bias_constraint": null}, "name": "block4a_dwconv", "inbound_nodes": [{"args": [{"class_name": "__keras_tensor__", "config": {"shape": [null, 39, 39, 288], "dtype": "float32", "keras_history": ["block4a_dwconv_pad", 0, 0]}}], "kwargs": {}}]}, {"class_name": "BatchNormalization", "config": {"name": "block4a_bn", "trainable": false, "dtype": {"module": "keras", "class_name": "DTypePolicy", "config": {"name": "float32"}, "registered_name": null}, "axis": 3, "momentum": 0.99, "epsilon": 0.001, "center": true, "scale": true, "beta_initializer": {"module": "keras.initializers", "class_name": "Zeros", "config": {}, "registered_name": null}, "gamma_initializer": {"module": "keras.initializers", "class_name": "Ones", "config": {}, "registered_name": null}, "moving_mean_initializer": {"module": "keras.initializers", "class_name": "Zeros", "config": {}, "registered_name": null}, "moving_variance_initializer": {"module": "keras.initializers", "class_name": "Ones", "config": {}, "registered_name": null}, "beta_regularizer": null, "gamma_regularizer": null, "beta_constraint": null, "gamma_constraint": null, "synchronized": false}, "name": "block4a_bn", "inbound_nodes": [{"args": [{"class_name": "__keras_tensor__", "config": {"shape": [null, 19, 19, 288], "dtype": "float32", "keras_history": ["block4a_dwconv", 0, 0]}}], "kwargs": {"mask": null}}]}, {"class_name": "Activation", "config": {"name": "block4a_activation", "trainable": false, "dtype": {"module": "keras", "class_name": "DTypePolicy", "config": {"name": "float32"}, "registered_name": null}, "activation": "silu"}, "name": "block4a_activation", "inbound_nodes": [{"args": [{"class_name": "__keras_tensor__", "config": {"shape": [null, 19, 19, 288], "dtype": "float32", "keras_history": ["block4a_bn", 0, 0]}}], "kwargs": {}}]}, {"class_name": "GlobalAveragePooling2D", "config": {"name": "block4a_se_squeeze", "trainable": false, "dtype": {"module": "keras", "class_name": "DTypePolicy", "config": {"name": "float32"}, "registered_name": null}, "data_format": "channels_last", "keepdims": false}, "name": "block4a_se_squeeze", "inbound_nodes": [{"args": [{"class_name": "__keras_tensor__", "config": {"shape": [null, 19, 19, 288], "dtype": "float32", "keras_history": ["block4a_activation", 0, 0]}}], "kwargs": {}}]}, {"class_name": "Reshape", "config": {"name": "block4a_se_reshape", "trainable": false, "dtype": {"module": "keras", "class_name": "DTypePolicy", "config": {"name": "float32"}, "registered_name": null}, "target_shape": [1, 1, 288]}, "name": "block4a_se_reshape", "inbound_nodes": [{"args": [{"class_name": "__keras_tensor__", "config": {"shape": [null, 288], "dtype": "float32", "keras_history": ["block4a_se_squeeze", 0, 0]}}], "kwargs": {}}]}, {"class_name": "Conv2D", "config": {"name": "block4a_se_reduce", "trainable": false, "dtype": {"module": "keras", "class_name": "DTypePolicy", "config": {"name": "float32"}, "registered_name": null}, "filters": 12, "kernel_size": [1, 1], "strides": [1, 1], "padding": "same", "data_format": "channels_last", "dilation_rate": [1, 1], "groups": 1, "activation": "silu", "use_bias": true, "kernel_initializer": {"module": "keras.initializers", "class_name": "VarianceScaling", "config": {"seed": null, "scale": 2.0, "mode": "fan_out", "distribution": "truncated_normal"}, "registered_name": null}, "bias_initializer": {"module": "keras.initializers", "class_name": "Zeros", "config": {}, "registered_name": null}, "kernel_regularizer": null, "bias_regularizer": null, "activity_regularizer": null, "kernel_constraint": null, "bias_constraint": null}, "name": "block4a_se_reduce", "inbound_nodes": [{"args": [{"class_name": "__keras_tensor__", "config": {"shape": [null, 1, 1, 288], "dtype": "float32", "keras_history": ["block4a_se_reshape", 0, 0]}}], "kwargs": {}}]}, {"class_name": "Conv2D", "config": {"name": "block4a_se_expand", "trainable": false, "dtype": {"module": "keras", "class_name": "DTypePolicy", "config": {"name": "float32"}, "registered_name": null}, "filters": 288, "kernel_size": [1, 1], "strides": [1, 1], "padding": "same", "data_format": "channels_last", "dilation_rate": [1, 1], "groups": 1, "activation": "sigmoid", "use_bias": true, "kernel_initializer": {"module": "keras.initializers", "class_name": "VarianceScaling", "config": {"seed": null, "scale": 2.0, "mode": "fan_out", "distribution": "truncated_normal"}, "registered_name": null}, "bias_initializer": {"module": "keras.initializers", "class_name": "Zeros", "config": {}, "registered_name": null}, "kernel_regularizer": null, "bias_regularizer": null, "activity_regularizer": null, "kernel_constraint": null, "bias_constraint": null}, "name": "block4a_se_expand", "inbound_nodes": [{"args": [{"class_name": "__keras_tensor__", "config": {"shape": [null, 1, 1, 12], "dtype": "float32", "keras_history": ["block4a_se_reduce", 0, 0]}}], "kwargs": {}}]}, {"class_name": "Multiply", "config": {"name": "block4a_se_excite", "trainable": false, "dtype": {"module": "keras", "class_name": "DTypePolicy", "config": {"name": "float32"}, "registered_name": null}}, "name": "block4a_se_excite", "inbound_nodes": [{"args": [[{"class_name": "__keras_tensor__", "config": {"shape": [null, 19, 19, 288], "dtype": "float32", "keras_history": ["block4a_activation", 0, 0]}}, {"class_name": "__keras_tensor__", "config": {"shape": [null, 1, 1, 288], "dtype": "float32", "keras_history": ["block4a_se_expand", 0, 0]}}]], "kwargs": {}}]}, {"class_name": "Conv2D", "config": {"name": "block4a_project_conv", "trainable": false, "dtype": {"module": "keras", "class_name": "DTypePolicy", "config": {"name": "float32"}, "registered_name": null}, "filters": 96, "kernel_size": [1, 1], "strides": [1, 1], "padding": "same", "data_format": "channels_last", "dilation_rate": [1, 1], "groups": 1, "activation": "linear", "use_bias": false, "kernel_initializer": {"module": "keras.initializers", "class_name": "VarianceScaling", "config": {"seed": null, "scale": 2.0, "mode": "fan_out", "distribution": "truncated_normal"}, "registered_name": null}, "bias_initializer": {"module": "keras.initializers", "class_name": "Zeros", "config": {}, "registered_name": null}, "kernel_regularizer": null, "bias_regularizer": null, "activity_regularizer": null, "kernel_constraint": null, "bias_constraint": null}, "name": "block4a_project_conv", "inbound_nodes": [{"args": [{"class_name": "__keras_tensor__", "config": {"shape": [null, 19, 19, 288], "dtype": "float32", "keras_history": ["block4a_se_excite", 0, 0]}}], "kwargs": {}}]}, {"class_name": "BatchNormalization", "config": {"name": "block4a_project_bn", "trainable": false, "dtype": {"module": "keras", "class_name": "DTypePolicy", "config": {"name": "float32"}, "registered_name": null}, "axis": 3, "momentum": 0.99, "epsilon": 0.001, "center": true, "scale": true, "beta_initializer": {"module": "keras.initializers", "class_name": "Zeros", "config": {}, "registered_name": null}, "gamma_initializer": {"module": "keras.initializers", "class_name": "Ones", "config": {}, "registered_name": null}, "moving_mean_initializer": {"module": "keras.initializers", "class_name": "Zeros", "config": {}, "registered_name": null}, "moving_variance_initializer": {"module": "keras.initializers", "class_name": "Ones", "config": {}, "registered_name": null}, "beta_regularizer": null, "gamma_regularizer": null, "beta_constraint": null, "gamma_constraint": null, "synchronized": false}, "name": "block4a_project_bn", "inbound_nodes": [{"args": [{"class_name": "__keras_tensor__", "config": {"shape": [null, 19, 19, 96], "dtype": "float32", "keras_history": ["block4a_project_conv", 0, 0]}}], "kwargs": {"mask": null}}]}, {"class_name": "Conv2D", "config": {"name": "block4b_expand_conv", "trainable": false, "dtype": {"module": "keras", "class_name": "DTypePolicy", "config": {"name": "float32"}, "registered_name": null}, "filters": 576, "kernel_size": [1, 1], "strides": [1, 1], "padding": "same", "data_format": "channels_last", "dilation_rate": [1, 1], "groups": 1, "activation": "linear", "use_bias": false, "kernel_initializer": {"module": "keras.initializers", "class_name": "VarianceScaling", "config": {"seed": null, "scale": 2.0, "mode": "fan_out", "distribution": "truncated_normal"}, "registered_name": null}, "bias_initializer": {"module": "keras.initializers", "class_name": "Zeros", "config": {}, "registered_name": null}, "kernel_regularizer": null, "bias_regularizer": null, "activity_regularizer": null, "kernel_constraint": null, "bias_constraint": null}, "name": "block4b_expand_conv", "inbound_nodes": [{"args": [{"class_name": "__keras_tensor__", "config": {"shape": [null, 19, 19, 96], "dtype": "float32", "keras_history": ["block4a_project_bn", 0, 0]}}], "kwargs": {}}]}, {"class_name": "BatchNormalization", "config": {"name": "block4b_expand_bn", "trainable": false, "dtype": {"module": "keras", "class_name": "DTypePolicy", "config": {"name": "float32"}, "registered_name": null}, "axis": 3, "momentum": 0.99, "epsilon": 0.001, "center": true, "scale": true, "beta_initializer": {"module": "keras.initializers", "class_name": "Zeros", "config": {}, "registered_name": null}, "gamma_initializer": {"module": "keras.initializers", "class_name": "Ones", "config": {}, "registered_name": null}, "moving_mean_initializer": {"module": "keras.initializers", "class_name": "Zeros", "config": {}, "registered_name": null}, "moving_variance_initializer": {"module": "keras.initializers", "class_name": "Ones", "config": {}, "registered_name": null}, "beta_regularizer": null, "gamma_regularizer": null, "beta_constraint": null, "gamma_constraint": null, "synchronized": false}, "name": "block4b_expand_bn", "inbound_nodes": [{"args": [{"class_name": "__keras_tensor__", "config": {"shape": [null, 19, 19, 576], "dtype": "float32", "keras_history": ["block4b_expand_conv", 0, 0]}}], "kwargs": {"mask": null}}]}, {"class_name": "Activation", "config": {"name": "block4b_expand_activation", "trainable": false, "dtype": {"module": "keras", "class_name": "DTypePolicy", "config": {"name": "float32"}, "registered_name": null}, "activation": "silu"}, "name": "block4b_expand_activation", "inbound_nodes": [{"args": [{"class_name": "__keras_tensor__", "config": {"shape": [null, 19, 19, 576], "dtype": "float32", "keras_history": ["block4b_expand_bn", 0, 0]}}], "kwargs": {}}]}, {"class_name": "DepthwiseConv2D", "config": {"name": "block4b_dwconv", "trainable": false, "dtype": {"module": "keras", "class_name": "DTypePolicy", "config": {"name": "float32"}, "registered_name": null}, "depth_multiplier": 1, "kernel_size": [3, 3], "strides": [1, 1], "padding": "same", "data_format": "channels_last", "dilation_rate": [1, 1], "activation": "linear", "use_bias": false, "depthwise_initializer": {"module": "keras.initializers", "class_name": "VarianceScaling", "config": {"seed": null, "scale": 2.0, "mode": "fan_out", "distribution": "truncated_normal"}, "registered_name": null}, "bias_initializer": {"module": "keras.initializers", "class_name": "Zeros", "config": {}, "registered_name": null}, "depthwise_regularizer": null, "bias_regularizer": null, "activity_regularizer": null, "depthwise_constraint": null, "bias_constraint": null}, "name": "block4b_dwconv", "inbound_nodes": [{"args": [{"class_name": "__keras_tensor__", "config": {"shape": [null, 19, 19, 576], "dtype": "float32", "keras_history": ["block4b_expand_activation", 0, 0]}}], "kwargs": {}}]}, {"class_name": "BatchNormalization", "config": {"name": "block4b_bn", "trainable": false, "dtype": {"module": "keras", "class_name": "DTypePolicy", "config": {"name": "float32"}, "registered_name": null}, "axis": 3, "momentum": 0.99, "epsilon": 0.001, "center": true, "scale": true, "beta_initializer": {"module": "keras.initializers", "class_name": "Zeros", "config": {}, "registered_name": null}, "gamma_initializer": {"module": "keras.initializers", "class_name": "Ones", "config": {}, "registered_name": null}, "moving_mean_initializer": {"module": "keras.initializers", "class_name": "Zeros", "config": {}, "registered_name": null}, "moving_variance_initializer": {"module": "keras.initializers", "class_name": "Ones", "config": {}, "registered_name": null}, "beta_regularizer": null, "gamma_regularizer": null, "beta_constraint": null, "gamma_constraint": null, "synchronized": false}, "name": "block4b_bn", "inbound_nodes": [{"args": [{"class_name": "__keras_tensor__", "config": {"shape": [null, 19, 19, 576], "dtype": "float32", "keras_history": ["block4b_dwconv", 0, 0]}}], "kwargs": {"mask": null}}]}, {"class_name": "Activation", "config": {"name": "block4b_activation", "trainable": false, "dtype": {"module": "keras", "class_name": "DTypePolicy", "config": {"name": "float32"}, "registered_name": null}, "activation": "silu"}, "name": "block4b_activation", "inbound_nodes": [{"args": [{"class_name": "__keras_tensor__", "config": {"shape": [null, 19, 19, 576], "dtype": "float32", "keras_history": ["block4b_bn", 0, 0]}}], "kwargs": {}}]}, {"class_name": "GlobalAveragePooling2D", "config": {"name": "block4b_se_squeeze", "trainable": false, "dtype": {"module": "keras", "class_name": "DTypePolicy", "config": {"name": "float32"}, "registered_name": null}, "data_format": "channels_last", "keepdims": false}, "name": "block4b_se_squeeze", "inbound_nodes": [{"args": [{"class_name": "__keras_tensor__", "config": {"shape": [null, 19, 19, 576], "dtype": "float32", "keras_history": ["block4b_activation", 0, 0]}}], "kwargs": {}}]}, {"class_name": "Reshape", "config": {"name": "block4b_se_reshape", "trainable": false, "dtype": {"module": "keras", "class_name": "DTypePolicy", "config": {"name": "float32"}, "registered_name": null}, "target_shape": [1, 1, 576]}, "name": "block4b_se_reshape", "inbound_nodes": [{"args": [{"class_name": "__keras_tensor__", "config": {"shape": [null, 576], "dtype": "float32", "keras_history": ["block4b_se_squeeze", 0, 0]}}], "kwargs": {}}]}, {"class_name": "Conv2D", "config": {"name": "block4b_se_reduce", "trainable": false, "dtype": {"module": "keras", "class_name": "DTypePolicy", "config": {"name": "float32"}, "registered_name": null}, "filters": 24, "kernel_size": [1, 1], "strides": [1, 1], "padding": "same", "data_format": "channels_last", "dilation_rate": [1, 1], "groups": 1, "activation": "silu", "use_bias": true, "kernel_initializer": {"module": "keras.initializers", "class_name": "VarianceScaling", "config": {"seed": null, "scale": 2.0, "mode": "fan_out", "distribution": "truncated_normal"}, "registered_name": null}, "bias_initializer": {"module": "keras.initializers", "class_name": "Zeros", "config": {}, "registered_name": null}, "kernel_regularizer": null, "bias_regularizer": null, "activity_regularizer": null, "kernel_constraint": null, "bias_constraint": null}, "name": "block4b_se_reduce", "inbound_nodes": [{"args": [{"class_name": "__keras_tensor__", "config": {"shape": [null, 1, 1, 576], "dtype": "float32", "keras_history": ["block4b_se_reshape", 0, 0]}}], "kwargs": {}}]}, {"class_name": "Conv2D", "config": {"name": "block4b_se_expand", "trainable": false, "dtype": {"module": "keras", "class_name": "DTypePolicy", "config": {"name": "float32"}, "registered_name": null}, "filters": 576, "kernel_size": [1, 1], "strides": [1, 1], "padding": "same", "data_format": "channels_last", "dilation_rate": [1, 1], "groups": 1, "activation": "sigmoid", "use_bias": true, "kernel_initializer": {"module": "keras.initializers", "class_name": "VarianceScaling", "config": {"seed": null, "scale": 2.0, "mode": "fan_out", "distribution": "truncated_normal"}, "registered_name": null}, "bias_initializer": {"module": "keras.initializers", "class_name": "Zeros", "config": {}, "registered_name": null}, "kernel_regularizer": null, "bias_regularizer": null, "activity_regularizer": null, "kernel_constraint": null, "bias_constraint": null}, "name": "block4b_se_expand", "inbound_nodes": [{"args": [{"class_name": "__keras_tensor__", "config": {"shape": [null, 1, 1, 24], "dtype": "float32", "keras_history": ["block4b_se_reduce", 0, 0]}}], "kwargs": {}}]}, {"class_name": "Multiply", "config": {"name": "block4b_se_excite", "trainable": false, "dtype": {"module": "keras", "class_name": "DTypePolicy", "config": {"name": "float32"}, "registered_name": null}}, "name": "block4b_se_excite", "inbound_nodes": [{"args": [[{"class_name": "__keras_tensor__", "config": {"shape": [null, 19, 19, 576], "dtype": "float32", "keras_history": ["block4b_activation", 0, 0]}}, {"class_name": "__keras_tensor__", "config": {"shape": [null, 1, 1, 576], "dtype": "float32", "keras_history": ["block4b_se_expand", 0, 0]}}]], "kwargs": {}}]}, {"class_name": "Conv2D", "config": {"name": "block4b_project_conv", "trainable": false, "dtype": {"module": "keras", "class_name": "DTypePolicy", "config": {"name": "float32"}, "registered_name": null}, "filters": 96, "kernel_size": [1, 1], "strides": [1, 1], "padding": "same", "data_format": "channels_last", "dilation_rate": [1, 1], "groups": 1, "activation": "linear", "use_bias": false, "kernel_initializer": {"module": "keras.initializers", "class_name": "VarianceScaling", "config": {"seed": null, "scale": 2.0, "mode": "fan_out", "distribution": "truncated_normal"}, "registered_name": null}, "bias_initializer": {"module": "keras.initializers", "class_name": "Zeros", "config": {}, "registered_name": null}, "kernel_regularizer": null, "bias_regularizer": null, "activity_regularizer": null, "kernel_constraint": null, "bias_constraint": null}, "name": "block4b_project_conv", "inbound_nodes": [{"args": [{"class_name": "__keras_tensor__", "config": {"shape": [null, 19, 19, 576], "dtype": "float32", "keras_history": ["block4b_se_excite", 0, 0]}}], "kwargs": {}}]}, {"class_name": "BatchNormalization", "config": {"name": "block4b_project_bn", "trainable": false, "dtype": {"module": "keras", "class_name": "DTypePolicy", "config": {"name": "float32"}, "registered_name": null}, "axis": 3, "momentum": 0.99, "epsilon": 0.001, "center": true, "scale": true, "beta_initializer": {"module": "keras.initializers", "class_name": "Zeros", "config": {}, "registered_name": null}, "gamma_initializer": {"module": "keras.initializers", "class_name": "Ones", "config": {}, "registered_name": null}, "moving_mean_initializer": {"module": "keras.initializers", "class_name": "Zeros", "config": {}, "registered_name": null}, "moving_variance_initializer": {"module": "keras.initializers", "class_name": "Ones", "config": {}, "registered_name": null}, "beta_regularizer": null, "gamma_regularizer": null, "beta_constraint": null, "gamma_constraint": null, "synchronized": false}, "name": "block4b_project_bn", "inbound_nodes": [{"args": [{"class_name": "__keras_tensor__", "config": {"shape": [null, 19, 19, 96], "dtype": "float32", "keras_history": ["block4b_project_conv", 0, 0]}}], "kwargs": {"mask": null}}]}, {"class_name": "Dropout", "config": {"name": "block4b_drop", "trainable": false, "dtype": {"module": "keras", "class_name": "DTypePolicy", "config": {"name": "float32"}, "registered_name": null}, "rate": 0.06923076923076923, "seed": null, "noise_shape": [null, 1, 1, 1]}, "name": "block4b_drop", "inbound_nodes": [{"args": [{"class_name": "__keras_tensor__", "config": {"shape": [null, 19, 19, 96], "dtype": "float32", "keras_history": ["block4b_project_bn", 0, 0]}}], "kwargs": {"training": false}}]}, {"class_name": "Add", "config": {"name": "block4b_add", "trainable": false, "dtype": {"module": "keras", "class_name": "DTypePolicy", "config": {"name": "float32"}, "registered_name": null}}, "name": "block4b_add", "inbound_nodes": [{"args": [[{"class_name": "__keras_tensor__", "config": {"shape": [null, 19, 19, 96], "dtype": "float32", "keras_history": ["block4b_drop", 0, 0]}}, {"class_name": "__keras_tensor__", "config": {"shape": [null, 19, 19, 96], "dtype": "float32", "keras_history": ["block4a_project_bn", 0, 0]}}]], "kwargs": {}}]}, {"class_name": "Conv2D", "config": {"name": "block4c_expand_conv", "trainable": false, "dtype": {"module": "keras", "class_name": "DTypePolicy", "config": {"name": "float32"}, "registered_name": null}, "filters": 576, "kernel_size": [1, 1], "strides": [1, 1], "padding": "same", "data_format": "channels_last", "dilation_rate": [1, 1], "groups": 1, "activation": "linear", "use_bias": false, "kernel_initializer": {"module": "keras.initializers", "class_name": "VarianceScaling", "config": {"seed": null, "scale": 2.0, "mode": "fan_out", "distribution": "truncated_normal"}, "registered_name": null}, "bias_initializer": {"module": "keras.initializers", "class_name": "Zeros", "config": {}, "registered_name": null}, "kernel_regularizer": null, "bias_regularizer": null, "activity_regularizer": null, "kernel_constraint": null, "bias_constraint": null}, "name": "block4c_expand_conv", "inbound_nodes": [{"args": [{"class_name": "__keras_tensor__", "config": {"shape": [null, 19, 19, 96], "dtype": "float32", "keras_history": ["block4b_add", 0, 0]}}], "kwargs": {}}]}, {"class_name": "BatchNormalization", "config": {"name": "block4c_expand_bn", "trainable": false, "dtype": {"module": "keras", "class_name": "DTypePolicy", "config": {"name": "float32"}, "registered_name": null}, "axis": 3, "momentum": 0.99, "epsilon": 0.001, "center": true, "scale": true, "beta_initializer": {"module": "keras.initializers", "class_name": "Zeros", "config": {}, "registered_name": null}, "gamma_initializer": {"module": "keras.initializers", "class_name": "Ones", "config": {}, "registered_name": null}, "moving_mean_initializer": {"module": "keras.initializers", "class_name": "Zeros", "config": {}, "registered_name": null}, "moving_variance_initializer": {"module": "keras.initializers", "class_name": "Ones", "config": {}, "registered_name": null}, "beta_regularizer": null, "gamma_regularizer": null, "beta_constraint": null, "gamma_constraint": null, "synchronized": false}, "name": "block4c_expand_bn", "inbound_nodes": [{"args": [{"class_name": "__keras_tensor__", "config": {"shape": [null, 19, 19, 576], "dtype": "float32", "keras_history": ["block4c_expand_conv", 0, 0]}}], "kwargs": {"mask": null}}]}, {"class_name": "Activation", "config": {"name": "block4c_expand_activation", "trainable": false, "dtype": {"module": "keras", "class_name": "DTypePolicy", "config": {"name": "float32"}, "registered_name": null}, "activation": "silu"}, "name": "block4c_expand_activation", "inbound_nodes": [{"args": [{"class_name": "__keras_tensor__", "config": {"shape": [null, 19, 19, 576], "dtype": "float32", "keras_history": ["block4c_expand_bn", 0, 0]}}], "kwargs": {}}]}, {"class_name": "DepthwiseConv2D", "config": {"name": "block4c_dwconv", "trainable": false, "dtype": {"module": "keras", "class_name": "DTypePolicy", "config": {"name": "float32"}, "registered_name": null}, "depth_multiplier": 1, "kernel_size": [3, 3], "strides": [1, 1], "padding": "same", "data_format": "channels_last", "dilation_rate": [1, 1], "activation": "linear", "use_bias": false, "depthwise_initializer": {"module": "keras.initializers", "class_name": "VarianceScaling", "config": {"seed": null, "scale": 2.0, "mode": "fan_out", "distribution": "truncated_normal"}, "registered_name": null}, "bias_initializer": {"module": "keras.initializers", "class_name": "Zeros", "config": {}, "registered_name": null}, "depthwise_regularizer": null, "bias_regularizer": null, "activity_regularizer": null, "depthwise_constraint": null, "bias_constraint": null}, "name": "block4c_dwconv", "inbound_nodes": [{"args": [{"class_name": "__keras_tensor__", "config": {"shape": [null, 19, 19, 576], "dtype": "float32", "keras_history": ["block4c_expand_activation", 0, 0]}}], "kwargs": {}}]}, {"class_name": "BatchNormalization", "config": {"name": "block4c_bn", "trainable": false, "dtype": {"module": "keras", "class_name": "DTypePolicy", "config": {"name": "float32"}, "registered_name": null}, "axis": 3, "momentum": 0.99, "epsilon": 0.001, "center": true, "scale": true, "beta_initializer": {"module": "keras.initializers", "class_name": "Zeros", "config": {}, "registered_name": null}, "gamma_initializer": {"module": "keras.initializers", "class_name": "Ones", "config": {}, "registered_name": null}, "moving_mean_initializer": {"module": "keras.initializers", "class_name": "Zeros", "config": {}, "registered_name": null}, "moving_variance_initializer": {"module": "keras.initializers", "class_name": "Ones", "config": {}, "registered_name": null}, "beta_regularizer": null, "gamma_regularizer": null, "beta_constraint": null, "gamma_constraint": null, "synchronized": false}, "name": "block4c_bn", "inbound_nodes": [{"args": [{"class_name": "__keras_tensor__", "config": {"shape": [null, 19, 19, 576], "dtype": "float32", "keras_history": ["block4c_dwconv", 0, 0]}}], "kwargs": {"mask": null}}]}, {"class_name": "Activation", "config": {"name": "block4c_activation", "trainable": false, "dtype": {"module": "keras", "class_name": "DTypePolicy", "config": {"name": "float32"}, "registered_name": null}, "activation": "silu"}, "name": "block4c_activation", "inbound_nodes": [{"args": [{"class_name": "__keras_tensor__", "config": {"shape": [null, 19, 19, 576], "dtype": "float32", "keras_history": ["block4c_bn", 0, 0]}}], "kwargs": {}}]}, {"class_name": "GlobalAveragePooling2D", "config": {"name": "block4c_se_squeeze", "trainable": false, "dtype": {"module": "keras", "class_name": "DTypePolicy", "config": {"name": "float32"}, "registered_name": null}, "data_format": "channels_last", "keepdims": false}, "name": "block4c_se_squeeze", "inbound_nodes": [{"args": [{"class_name": "__keras_tensor__", "config": {"shape": [null, 19, 19, 576], "dtype": "float32", "keras_history": ["block4c_activation", 0, 0]}}], "kwargs": {}}]}, {"class_name": "Reshape", "config": {"name": "block4c_se_reshape", "trainable": false, "dtype": {"module": "keras", "class_name": "DTypePolicy", "config": {"name": "float32"}, "registered_name": null}, "target_shape": [1, 1, 576]}, "name": "block4c_se_reshape", "inbound_nodes": [{"args": [{"class_name": "__keras_tensor__", "config": {"shape": [null, 576], "dtype": "float32", "keras_history": ["block4c_se_squeeze", 0, 0]}}], "kwargs": {}}]}, {"class_name": "Conv2D", "config": {"name": "block4c_se_reduce", "trainable": false, "dtype": {"module": "keras", "class_name": "DTypePolicy", "config": {"name": "float32"}, "registered_name": null}, "filters": 24, "kernel_size": [1, 1], "strides": [1, 1], "padding": "same", "data_format": "channels_last", "dilation_rate": [1, 1], "groups": 1, "activation": "silu", "use_bias": true, "kernel_initializer": {"module": "keras.initializers", "class_name": "VarianceScaling", "config": {"seed": null, "scale": 2.0, "mode": "fan_out", "distribution": "truncated_normal"}, "registered_name": null}, "bias_initializer": {"module": "keras.initializers", "class_name": "Zeros", "config": {}, "registered_name": null}, "kernel_regularizer": null, "bias_regularizer": null, "activity_regularizer": null, "kernel_constraint": null, "bias_constraint": null}, "name": "block4c_se_reduce", "inbound_nodes": [{"args": [{"class_name": "__keras_tensor__", "config": {"shape": [null, 1, 1, 576], "dtype": "float32", "keras_history": ["block4c_se_reshape", 0, 0]}}], "kwargs": {}}]}, {"class_name": "Conv2D", "config": {"name": "block4c_se_expand", "trainable": false, "dtype": {"module": "keras", "class_name": "DTypePolicy", "config": {"name": "float32"}, "registered_name": null}, "filters": 576, "kernel_size": [1, 1], "strides": [1, 1], "padding": "same", "data_format": "channels_last", "dilation_rate": [1, 1], "groups": 1, "activation": "sigmoid", "use_bias": true, "kernel_initializer": {"module": "keras.initializers", "class_name": "VarianceScaling", "config": {"seed": null, "scale": 2.0, "mode": "fan_out", "distribution": "truncated_normal"}, "registered_name": null}, "bias_initializer": {"module": "keras.initializers", "class_name": "Zeros", "config": {}, "registered_name": null}, "kernel_regularizer": null, "bias_regularizer": null, "activity_regularizer": null, "kernel_constraint": null, "bias_constraint": null}, "name": "block4c_se_expand", "inbound_nodes": [{"args": [{"class_name": "__keras_tensor__", "config": {"shape": [null, 1, 1, 24], "dtype": "float32", "keras_history": ["block4c_se_reduce", 0, 0]}}], "kwargs": {}}]}, {"class_name": "Multiply", "config": {"name": "block4c_se_excite", "trainable": false, "dtype": {"module": "keras", "class_name": "DTypePolicy", "config": {"name": "float32"}, "registered_name": null}}, "name": "block4c_se_excite", "inbound_nodes": [{"args": [[{"class_name": "__keras_tensor__", "config": {"shape": [null, 19, 19, 576], "dtype": "float32", "keras_history": ["block4c_activation", 0, 0]}}, {"class_name": "__keras_tensor__", "config": {"shape": [null, 1, 1, 576], "dtype": "float32", "keras_history": ["block4c_se_expand", 0, 0]}}]], "kwargs": {}}]}, {"class_name": "Conv2D", "config": {"name": "block4c_project_conv", "trainable": false, "dtype": {"module": "keras", "class_name": "DTypePolicy", "config": {"name": "float32"}, "registered_name": null}, "filters": 96, "kernel_size": [1, 1], "strides": [1, 1], "padding": "same", "data_format": "channels_last", "dilation_rate": [1, 1], "groups": 1, "activation": "linear", "use_bias": false, "kernel_initializer": {"module": "keras.initializers", "class_name": "VarianceScaling", "config": {"seed": null, "scale": 2.0, "mode": "fan_out", "distribution": "truncated_normal"}, "registered_name": null}, "bias_initializer": {"module": "keras.initializers", "class_name": "Zeros", "config": {}, "registered_name": null}, "kernel_regularizer": null, "bias_regularizer": null, "activity_regularizer": null, "kernel_constraint": null, "bias_constraint": null}, "name": "block4c_project_conv", "inbound_nodes": [{"args": [{"class_name": "__keras_tensor__", "config": {"shape": [null, 19, 19, 576], "dtype": "float32", "keras_history": ["block4c_se_excite", 0, 0]}}], "kwargs": {}}]}, {"class_name": "BatchNormalization", "config": {"name": "block4c_project_bn", "trainable": false, "dtype": {"module": "keras", "class_name": "DTypePolicy", "config": {"name": "float32"}, "registered_name": null}, "axis": 3, "momentum": 0.99, "epsilon": 0.001, "center": true, "scale": true, "beta_initializer": {"module": "keras.initializers", "class_name": "Zeros", "config": {}, "registered_name": null}, "gamma_initializer": {"module": "keras.initializers", "class_name": "Ones", "config": {}, "registered_name": null}, "moving_mean_initializer": {"module": "keras.initializers", "class_name": "Zeros", "config": {}, "registered_name": null}, "moving_variance_initializer": {"module": "keras.initializers", "class_name": "Ones", "config": {}, "registered_name": null}, "beta_regularizer": null, "gamma_regularizer": null, "beta_constraint": null, "gamma_constraint": null, "synchronized": false}, "name": "block4c_project_bn", "inbound_nodes": [{"args": [{"class_name": "__keras_tensor__", "config": {"shape": [null, 19, 19, 96], "dtype": "float32", "keras_history": ["block4c_project_conv", 0, 0]}}], "kwargs": {"mask": null}}]}, {"class_name": "Dropout", "config": {"name": "block4c_drop", "trainable": false, "dtype": {"module": "keras", "class_name": "DTypePolicy", "config": {"name": "float32"}, "registered_name": null}, "rate": 0.07692307692307693, "seed": null, "noise_shape": [null, 1, 1, 1]}, "name": "block4c_drop", "inbound_nodes": [{"args": [{"class_name": "__keras_tensor__", "config": {"shape": [null, 19, 19, 96], "dtype": "float32", "keras_history": ["block4c_project_bn", 0, 0]}}], "kwargs": {"training": false}}]}, {"class_name": "Add", "config": {"name": "block4c_add", "trainable": false, "dtype": {"module": "keras", "class_name": "DTypePolicy", "config": {"name": "float32"}, "registered_name": null}}, "name": "block4c_add", "inbound_nodes": [{"args": [[{"class_name": "__keras_tensor__", "config": {"shape": [null, 19, 19, 96], "dtype": "float32", "keras_history": ["block4c_drop", 0, 0]}}, {"class_name": "__keras_tensor__", "config": {"shape": [null, 19, 19, 96], "dtype": "float32", "keras_history": ["block4b_add", 0, 0]}}]], "kwargs": {}}]}, {"class_name": "Conv2D", "config": {"name": "block4d_expand_conv", "trainable": false, "dtype": {"module": "keras", "class_name": "DTypePolicy", "config": {"name": "float32"}, "registered_name": null}, "filters": 576, "kernel_size": [1, 1], "strides": [1, 1], "padding": "same", "data_format": "channels_last", "dilation_rate": [1, 1], "groups": 1, "activation": "linear", "use_bias": false, "kernel_initializer": {"module": "keras.initializers", "class_name": "VarianceScaling", "config": {"seed": null, "scale": 2.0, "mode": "fan_out", "distribution": "truncated_normal"}, "registered_name": null}, "bias_initializer": {"module": "keras.initializers", "class_name": "Zeros", "config": {}, "registered_name": null}, "kernel_regularizer": null, "bias_regularizer": null, "activity_regularizer": null, "kernel_constraint": null, "bias_constraint": null}, "name": "block4d_expand_conv", "inbound_nodes": [{"args": [{"class_name": "__keras_tensor__", "config": {"shape": [null, 19, 19, 96], "dtype": "float32", "keras_history": ["block4c_add", 0, 0]}}], "kwargs": {}}]}, {"class_name": "BatchNormalization", "config": {"name": "block4d_expand_bn", "trainable": false, "dtype": {"module": "keras", "class_name": "DTypePolicy", "config": {"name": "float32"}, "registered_name": null}, "axis": 3, "momentum": 0.99, "epsilon": 0.001, "center": true, "scale": true, "beta_initializer": {"module": "keras.initializers", "class_name": "Zeros", "config": {}, "registered_name": null}, "gamma_initializer": {"module": "keras.initializers", "class_name": "Ones", "config": {}, "registered_name": null}, "moving_mean_initializer": {"module": "keras.initializers", "class_name": "Zeros", "config": {}, "registered_name": null}, "moving_variance_initializer": {"module": "keras.initializers", "class_name": "Ones", "config": {}, "registered_name": null}, "beta_regularizer": null, "gamma_regularizer": null, "beta_constraint": null, "gamma_constraint": null, "synchronized": false}, "name": "block4d_expand_bn", "inbound_nodes": [{"args": [{"class_name": "__keras_tensor__", "config": {"shape": [null, 19, 19, 576], "dtype": "float32", "keras_history": ["block4d_expand_conv", 0, 0]}}], "kwargs": {"mask": null}}]}, {"class_name": "Activation", "config": {"name": "block4d_expand_activation", "trainable": false, "dtype": {"module": "keras", "class_name": "DTypePolicy", "config": {"name": "float32"}, "registered_name": null}, "activation": "silu"}, "name": "block4d_expand_activation", "inbound_nodes": [{"args": [{"class_name": "__keras_tensor__", "config": {"shape": [null, 19, 19, 576], "dtype": "float32", "keras_history": ["block4d_expand_bn", 0, 0]}}], "kwargs": {}}]}, {"class_name": "DepthwiseConv2D", "config": {"name": "block4d_dwconv", "trainable": false, "dtype": {"module": "keras", "class_name": "DTypePolicy", "config": {"name": "float32"}, "registered_name": null}, "depth_multiplier": 1, "kernel_size": [3, 3], "strides": [1, 1], "padding": "same", "data_format": "channels_last", "dilation_rate": [1, 1], "activation": "linear", "use_bias": false, "depthwise_initializer": {"module": "keras.initializers", "class_name": "VarianceScaling", "config": {"seed": null, "scale": 2.0, "mode": "fan_out", "distribution": "truncated_normal"}, "registered_name": null}, "bias_initializer": {"module": "keras.initializers", "class_name": "Zeros", "config": {}, "registered_name": null}, "depthwise_regularizer": null, "bias_regularizer": null, "activity_regularizer": null, "depthwise_constraint": null, "bias_constraint": null}, "name": "block4d_dwconv", "inbound_nodes": [{"args": [{"class_name": "__keras_tensor__", "config": {"shape": [null, 19, 19, 576], "dtype": "float32", "keras_history": ["block4d_expand_activation", 0, 0]}}], "kwargs": {}}]}, {"class_name": "BatchNormalization", "config": {"name": "block4d_bn", "trainable": false, "dtype": {"module": "keras", "class_name": "DTypePolicy", "config": {"name": "float32"}, "registered_name": null}, "axis": 3, "momentum": 0.99, "epsilon": 0.001, "center": true, "scale": true, "beta_initializer": {"module": "keras.initializers", "class_name": "Zeros", "config": {}, "registered_name": null}, "gamma_initializer": {"module": "keras.initializers", "class_name": "Ones", "config": {}, "registered_name": null}, "moving_mean_initializer": {"module": "keras.initializers", "class_name": "Zeros", "config": {}, "registered_name": null}, "moving_variance_initializer": {"module": "keras.initializers", "class_name": "Ones", "config": {}, "registered_name": null}, "beta_regularizer": null, "gamma_regularizer": null, "beta_constraint": null, "gamma_constraint": null, "synchronized": false}, "name": "block4d_bn", "inbound_nodes": [{"args": [{"class_name": "__keras_tensor__", "config": {"shape": [null, 19, 19, 576], "dtype": "float32", "keras_history": ["block4d_dwconv", 0, 0]}}], "kwargs": {"mask": null}}]}, {"class_name": "Activation", "config": {"name": "block4d_activation", "trainable": false, "dtype": {"module": "keras", "class_name": "DTypePolicy", "config": {"name": "float32"}, "registered_name": null}, "activation": "silu"}, "name": "block4d_activation", "inbound_nodes": [{"args": [{"class_name": "__keras_tensor__", "config": {"shape": [null, 19, 19, 576], "dtype": "float32", "keras_history": ["block4d_bn", 0, 0]}}], "kwargs": {}}]}, {"class_name": "GlobalAveragePooling2D", "config": {"name": "block4d_se_squeeze", "trainable": false, "dtype": {"module": "keras", "class_name": "DTypePolicy", "config": {"name": "float32"}, "registered_name": null}, "data_format": "channels_last", "keepdims": false}, "name": "block4d_se_squeeze", "inbound_nodes": [{"args": [{"class_name": "__keras_tensor__", "config": {"shape": [null, 19, 19, 576], "dtype": "float32", "keras_history": ["block4d_activation", 0, 0]}}], "kwargs": {}}]}, {"class_name": "Reshape", "config": {"name": "block4d_se_reshape", "trainable": false, "dtype": {"module": "keras", "class_name": "DTypePolicy", "config": {"name": "float32"}, "registered_name": null}, "target_shape": [1, 1, 576]}, "name": "block4d_se_reshape", "inbound_nodes": [{"args": [{"class_name": "__keras_tensor__", "config": {"shape": [null, 576], "dtype": "float32", "keras_history": ["block4d_se_squeeze", 0, 0]}}], "kwargs": {}}]}, {"class_name": "Conv2D", "config": {"name": "block4d_se_reduce", "trainable": false, "dtype": {"module": "keras", "class_name": "DTypePolicy", "config": {"name": "float32"}, "registered_name": null}, "filters": 24, "kernel_size": [1, 1], "strides": [1, 1], "padding": "same", "data_format": "channels_last", "dilation_rate": [1, 1], "groups": 1, "activation": "silu", "use_bias": true, "kernel_initializer": {"module": "keras.initializers", "class_name": "VarianceScaling", "config": {"seed": null, "scale": 2.0, "mode": "fan_out", "distribution": "truncated_normal"}, "registered_name": null}, "bias_initializer": {"module": "keras.initializers", "class_name": "Zeros", "config": {}, "registered_name": null}, "kernel_regularizer": null, "bias_regularizer": null, "activity_regularizer": null, "kernel_constraint": null, "bias_constraint": null}, "name": "block4d_se_reduce", "inbound_nodes": [{"args": [{"class_name": "__keras_tensor__", "config": {"shape": [null, 1, 1, 576], "dtype": "float32", "keras_history": ["block4d_se_reshape", 0, 0]}}], "kwargs": {}}]}, {"class_name": "Conv2D", "config": {"name": "block4d_se_expand", "trainable": false, "dtype": {"module": "keras", "class_name": "DTypePolicy", "config": {"name": "float32"}, "registered_name": null}, "filters": 576, "kernel_size": [1, 1], "strides": [1, 1], "padding": "same", "data_format": "channels_last", "dilation_rate": [1, 1], "groups": 1, "activation": "sigmoid", "use_bias": true, "kernel_initializer": {"module": "keras.initializers", "class_name": "VarianceScaling", "config": {"seed": null, "scale": 2.0, "mode": "fan_out", "distribution": "truncated_normal"}, "registered_name": null}, "bias_initializer": {"module": "keras.initializers", "class_name": "Zeros", "config": {}, "registered_name": null}, "kernel_regularizer": null, "bias_regularizer": null, "activity_regularizer": null, "kernel_constraint": null, "bias_constraint": null}, "name": "block4d_se_expand", "inbound_nodes": [{"args": [{"class_name": "__keras_tensor__", "config": {"shape": [null, 1, 1, 24], "dtype": "float32", "keras_history": ["block4d_se_reduce", 0, 0]}}], "kwargs": {}}]}, {"class_name": "Multiply", "config": {"name": "block4d_se_excite", "trainable": false, "dtype": {"module": "keras", "class_name": "DTypePolicy", "config": {"name": "float32"}, "registered_name": null}}, "name": "block4d_se_excite", "inbound_nodes": [{"args": [[{"class_name": "__keras_tensor__", "config": {"shape": [null, 19, 19, 576], "dtype": "float32", "keras_history": ["block4d_activation", 0, 0]}}, {"class_name": "__keras_tensor__", "config": {"shape": [null, 1, 1, 576], "dtype": "float32", "keras_history": ["block4d_se_expand", 0, 0]}}]], "kwargs": {}}]}, {"class_name": "Conv2D", "config": {"name": "block4d_project_conv", "trainable": false, "dtype": {"module": "keras", "class_name": "DTypePolicy", "config": {"name": "float32"}, "registered_name": null}, "filters": 96, "kernel_size": [1, 1], "strides": [1, 1], "padding": "same", "data_format": "channels_last", "dilation_rate": [1, 1], "groups": 1, "activation": "linear", "use_bias": false, "kernel_initializer": {"module": "keras.initializers", "class_name": "VarianceScaling", "config": {"seed": null, "scale": 2.0, "mode": "fan_out", "distribution": "truncated_normal"}, "registered_name": null}, "bias_initializer": {"module": "keras.initializers", "class_name": "Zeros", "config": {}, "registered_name": null}, "kernel_regularizer": null, "bias_regularizer": null, "activity_regularizer": null, "kernel_constraint": null, "bias_constraint": null}, "name": "block4d_project_conv", "inbound_nodes": [{"args": [{"class_name": "__keras_tensor__", "config": {"shape": [null, 19, 19, 576], "dtype": "float32", "keras_history": ["block4d_se_excite", 0, 0]}}], "kwargs": {}}]}, {"class_name": "BatchNormalization", "config": {"name": "block4d_project_bn", "trainable": false, "dtype": {"module": "keras", "class_name": "DTypePolicy", "config": {"name": "float32"}, "registered_name": null}, "axis": 3, "momentum": 0.99, "epsilon": 0.001, "center": true, "scale": true, "beta_initializer": {"module": "keras.initializers", "class_name": "Zeros", "config": {}, "registered_name": null}, "gamma_initializer": {"module": "keras.initializers", "class_name": "Ones", "config": {}, "registered_name": null}, "moving_mean_initializer": {"module": "keras.initializers", "class_name": "Zeros", "config": {}, "registered_name": null}, "moving_variance_initializer": {"module": "keras.initializers", "class_name": "Ones", "config": {}, "registered_name": null}, "beta_regularizer": null, "gamma_regularizer": null, "beta_constraint": null, "gamma_constraint": null, "synchronized": false}, "name": "block4d_project_bn", "inbound_nodes": [{"args": [{"class_name": "__keras_tensor__", "config": {"shape": [null, 19, 19, 96], "dtype": "float32", "keras_history": ["block4d_project_conv", 0, 0]}}], "kwargs": {"mask": null}}]}, {"class_name": "Dropout", "config": {"name": "block4d_drop", "trainable": false, "dtype": {"module": "keras", "class_name": "DTypePolicy", "config": {"name": "float32"}, "registered_name": null}, "rate": 0.08461538461538462, "seed": null, "noise_shape": [null, 1, 1, 1]}, "name": "block4d_drop", "inbound_nodes": [{"args": [{"class_name": "__keras_tensor__", "config": {"shape": [null, 19, 19, 96], "dtype": "float32", "keras_history": ["block4d_project_bn", 0, 0]}}], "kwargs": {"training": false}}]}, {"class_name": "Add", "config": {"name": "block4d_add", "trainable": false, "dtype": {"module": "keras", "class_name": "DTypePolicy", "config": {"name": "float32"}, "registered_name": null}}, "name": "block4d_add", "inbound_nodes": [{"args": [[{"class_name": "__keras_tensor__", "config": {"shape": [null, 19, 19, 96], "dtype": "float32", "keras_history": ["block4d_drop", 0, 0]}}, {"class_name": "__keras_tensor__", "config": {"shape": [null, 19, 19, 96], "dtype": "float32", "keras_history": ["block4c_add", 0, 0]}}]], "kwargs": {}}]}, {"class_name": "Conv2D", "config": {"name": "block4e_expand_conv", "trainable": false, "dtype": {"module": "keras", "class_name": "DTypePolicy", "config": {"name": "float32"}, "registered_name": null}, "filters": 576, "kernel_size": [1, 1], "strides": [1, 1], "padding": "same", "data_format": "channels_last", "dilation_rate": [1, 1], "groups": 1, "activation": "linear", "use_bias": false, "kernel_initializer": {"module": "keras.initializers", "class_name": "VarianceScaling", "config": {"seed": null, "scale": 2.0, "mode": "fan_out", "distribution": "truncated_normal"}, "registered_name": null}, "bias_initializer": {"module": "keras.initializers", "class_name": "Zeros", "config": {}, "registered_name": null}, "kernel_regularizer": null, "bias_regularizer": null, "activity_regularizer": null, "kernel_constraint": null, "bias_constraint": null}, "name": "block4e_expand_conv", "inbound_nodes": [{"args": [{"class_name": "__keras_tensor__", "config": {"shape": [null, 19, 19, 96], "dtype": "float32", "keras_history": ["block4d_add", 0, 0]}}], "kwargs": {}}]}, {"class_name": "BatchNormalization", "config": {"name": "block4e_expand_bn", "trainable": false, "dtype": {"module": "keras", "class_name": "DTypePolicy", "config": {"name": "float32"}, "registered_name": null}, "axis": 3, "momentum": 0.99, "epsilon": 0.001, "center": true, "scale": true, "beta_initializer": {"module": "keras.initializers", "class_name": "Zeros", "config": {}, "registered_name": null}, "gamma_initializer": {"module": "keras.initializers", "class_name": "Ones", "config": {}, "registered_name": null}, "moving_mean_initializer": {"module": "keras.initializers", "class_name": "Zeros", "config": {}, "registered_name": null}, "moving_variance_initializer": {"module": "keras.initializers", "class_name": "Ones", "config": {}, "registered_name": null}, "beta_regularizer": null, "gamma_regularizer": null, "beta_constraint": null, "gamma_constraint": null, "synchronized": false}, "name": "block4e_expand_bn", "inbound_nodes": [{"args": [{"class_name": "__keras_tensor__", "config": {"shape": [null, 19, 19, 576], "dtype": "float32", "keras_history": ["block4e_expand_conv", 0, 0]}}], "kwargs": {"mask": null}}]}, {"class_name": "Activation", "config": {"name": "block4e_expand_activation", "trainable": false, "dtype": {"module": "keras", "class_name": "DTypePolicy", "config": {"name": "float32"}, "registered_name": null}, "activation": "silu"}, "name": "block4e_expand_activation", "inbound_nodes": [{"args": [{"class_name": "__keras_tensor__", "config": {"shape": [null, 19, 19, 576], "dtype": "float32", "keras_history": ["block4e_expand_bn", 0, 0]}}], "kwargs": {}}]}, {"class_name": "DepthwiseConv2D", "config": {"name": "block4e_dwconv", "trainable": false, "dtype": {"module": "keras", "class_name": "DTypePolicy", "config": {"name": "float32"}, "registered_name": null}, "depth_multiplier": 1, "kernel_size": [3, 3], "strides": [1, 1], "padding": "same", "data_format": "channels_last", "dilation_rate": [1, 1], "activation": "linear", "use_bias": false, "depthwise_initializer": {"module": "keras.initializers", "class_name": "VarianceScaling", "config": {"seed": null, "scale": 2.0, "mode": "fan_out", "distribution": "truncated_normal"}, "registered_name": null}, "bias_initializer": {"module": "keras.initializers", "class_name": "Zeros", "config": {}, "registered_name": null}, "depthwise_regularizer": null, "bias_regularizer": null, "activity_regularizer": null, "depthwise_constraint": null, "bias_constraint": null}, "name": "block4e_dwconv", "inbound_nodes": [{"args": [{"class_name": "__keras_tensor__", "config": {"shape": [null, 19, 19, 576], "dtype": "float32", "keras_history": ["block4e_expand_activation", 0, 0]}}], "kwargs": {}}]}, {"class_name": "BatchNormalization", "config": {"name": "block4e_bn", "trainable": false, "dtype": {"module": "keras", "class_name": "DTypePolicy", "config": {"name": "float32"}, "registered_name": null}, "axis": 3, "momentum": 0.99, "epsilon": 0.001, "center": true, "scale": true, "beta_initializer": {"module": "keras.initializers", "class_name": "Zeros", "config": {}, "registered_name": null}, "gamma_initializer": {"module": "keras.initializers", "class_name": "Ones", "config": {}, "registered_name": null}, "moving_mean_initializer": {"module": "keras.initializers", "class_name": "Zeros", "config": {}, "registered_name": null}, "moving_variance_initializer": {"module": "keras.initializers", "class_name": "Ones", "config": {}, "registered_name": null}, "beta_regularizer": null, "gamma_regularizer": null, "beta_constraint": null, "gamma_constraint": null, "synchronized": false}, "name": "block4e_bn", "inbound_nodes": [{"args": [{"class_name": "__keras_tensor__", "config": {"shape": [null, 19, 19, 576], "dtype": "float32", "keras_history": ["block4e_dwconv", 0, 0]}}], "kwargs": {"mask": null}}]}, {"class_name": "Activation", "config": {"name": "block4e_activation", "trainable": false, "dtype": {"module": "keras", "class_name": "DTypePolicy", "config": {"name": "float32"}, "registered_name": null}, "activation": "silu"}, "name": "block4e_activation", "inbound_nodes": [{"args": [{"class_name": "__keras_tensor__", "config": {"shape": [null, 19, 19, 576], "dtype": "float32", "keras_history": ["block4e_bn", 0, 0]}}], "kwargs": {}}]}, {"class_name": "GlobalAveragePooling2D", "config": {"name": "block4e_se_squeeze", "trainable": false, "dtype": {"module": "keras", "class_name": "DTypePolicy", "config": {"name": "float32"}, "registered_name": null}, "data_format": "channels_last", "keepdims": false}, "name": "block4e_se_squeeze", "inbound_nodes": [{"args": [{"class_name": "__keras_tensor__", "config": {"shape": [null, 19, 19, 576], "dtype": "float32", "keras_history": ["block4e_activation", 0, 0]}}], "kwargs": {}}]}, {"class_name": "Reshape", "config": {"name": "block4e_se_reshape", "trainable": false, "dtype": {"module": "keras", "class_name": "DTypePolicy", "config": {"name": "float32"}, "registered_name": null}, "target_shape": [1, 1, 576]}, "name": "block4e_se_reshape", "inbound_nodes": [{"args": [{"class_name": "__keras_tensor__", "config": {"shape": [null, 576], "dtype": "float32", "keras_history": ["block4e_se_squeeze", 0, 0]}}], "kwargs": {}}]}, {"class_name": "Conv2D", "config": {"name": "block4e_se_reduce", "trainable": false, "dtype": {"module": "keras", "class_name":…
tered_name": null}, "filters": 384, "kernel_size": [1, 1], "strides": [1, 1], "padding": "same", "data_format": "channels_last", "dilation_rate": [1, 1], "groups": 1, "activation": "linear", "use_bias": false, "kernel_initializer": {"module": "keras.initializers", "class_name": "VarianceScaling", "config": {"seed": null, "scale": 2.0, "mode": "fan_out", "distribution": "truncated_normal"}, "registered_name": null}, "bias_initializer": {"module": "keras.initializers", "class_name": "Zeros", "config": {}, "registered_name": null}, "kernel_regularizer": null, "bias_regularizer": null, "activity_regularizer": null, "kernel_constraint": null, "bias_constraint": null}, "name": "block7b_project_conv", "inbound_nodes": [{"args": [{"class_name": "__keras_tensor__", "config": {"shape": [null, 10, 10, 2304], "dtype": "float32", "keras_history": ["block7b_se_excite", 0, 0]}}], "kwargs": {}}]}, {"class_name": "BatchNormalization", "config": {"name": "block7b_project_bn", "trainable": false, "dtype": {"module": "keras", "class_name": "DTypePolicy", "config": {"name": "float32"}, "registered_name": null}, "axis": 3, "momentum": 0.99, "epsilon": 0.001, "center": true, "scale": true, "beta_initializer": {"module": "keras.initializers", "class_name": "Zeros", "config": {}, "registered_name": null}, "gamma_initializer": {"module": "keras.initializers", "class_name": "Ones", "config": {}, "registered_name": null}, "moving_mean_initializer": {"module": "keras.initializers", "class_name": "Zeros", "config": {}, "registered_name": null}, "moving_variance_initializer": {"module": "keras.initializers", "class_name": "Ones", "config": {}, "registered_name": null}, "beta_regularizer": null, "gamma_regularizer": null, "beta_constraint": null, "gamma_constraint": null, "synchronized": false}, "name": "block7b_project_bn", "inbound_nodes": [{"args": [{"class_name": "__keras_tensor__", "config": {"shape": [null, 10, 10, 384], "dtype": "float32", "keras_history": ["block7b_project_conv", 0, 0]}}], "kwargs": {"mask": null}}]}, {"class_name": "Dropout", "config": {"name": "block7b_drop", "trainable": false, "dtype": {"module": "keras", "class_name": "DTypePolicy", "config": {"name": "float32"}, "registered_name": null}, "rate": 0.19230769230769232, "seed": null, "noise_shape": [null, 1, 1, 1]}, "name": "block7b_drop", "inbound_nodes": [{"args": [{"class_name": "__keras_tensor__", "config": {"shape": [null, 10, 10, 384], "dtype": "float32", "keras_history": ["block7b_project_bn", 0, 0]}}], "kwargs": {"training": false}}]}, {"class_name": "Add", "config": {"name": "block7b_add", "trainable": false, "dtype": {"module": "keras", "class_name": "DTypePolicy", "config": {"name": "float32"}, "registered_name": null}}, "name": "block7b_add", "inbound_nodes": [{"args": [[{"class_name": "__keras_tensor__", "config": {"shape": [null, 10, 10, 384], "dtype": "float32", "keras_history": ["block7b_drop", 0, 0]}}, {"class_name": "__keras_tensor__", "config": {"shape": [null, 10, 10, 384], "dtype": "float32", "keras_history": ["block7a_project_bn", 0, 0]}}]], "kwargs": {}}]}, {"class_name": "Conv2D", "config": {"name": "top_conv", "trainable": false, "dtype": {"module": "keras", "class_name": "DTypePolicy", "config": {"name": "float32"}, "registered_name": null}, "filters": 1536, "kernel_size": [1, 1], "strides": [1, 1], "padding": "same", "data_format": "channels_last", "dilation_rate": [1, 1], "groups": 1, "activation": "linear", "use_bias": false, "kernel_initializer": {"module": "keras.initializers", "class_name": "VarianceScaling", "config": {"seed": null, "scale": 2.0, "mode": "fan_out", "distribution": "truncated_normal"}, "registered_name": null}, "bias_initializer": {"module": "keras.initializers", "class_name": "Zeros", "config": {}, "registered_name": null}, "kernel_regularizer": null, "bias_regularizer": null, "activity_regularizer": null, "kernel_constraint": null, "bias_constraint": null}, "name": "top_conv", "inbound_nodes": [{"args": [{"class_name": "__keras_tensor__", "config": {"shape": [null, 10, 10, 384], "dtype": "float32", "keras_history": ["block7b_add", 0, 0]}}], "kwargs": {}}]}, {"class_name": "BatchNormalization", "config": {"name": "top_bn", "trainable": false, "dtype": {"module": "keras", "class_name": "DTypePolicy", "config": {"name": "float32"}, "registered_name": null}, "axis": 3, "momentum": 0.99, "epsilon": 0.001, "center": true, "scale": true, "beta_initializer": {"module": "keras.initializers", "class_name": "Zeros", "config": {}, "registered_name": null}, "gamma_initializer": {"module": "keras.initializers", "class_name": "Ones", "config": {}, "registered_name": null}, "moving_mean_initializer": {"module": "keras.initializers", "class_name": "Zeros", "config": {}, "registered_name": null}, "moving_variance_initializer": {"module": "keras.initializers", "class_name": "Ones", "config": {}, "registered_name": null}, "beta_regularizer": null, "gamma_regularizer": null, "beta_constraint": null, "gamma_constraint": null, "synchronized": false}, "name": "top_bn", "inbound_nodes": [{"args": [{"class_name": "__keras_tensor__", "config": {"shape": [null, 10, 10, 1536], "dtype": "float32", "keras_history": ["top_conv", 0, 0]}}], "kwargs": {"mask": null}}]}, {"class_name": "Activation", "config": {"name": "top_activation", "trainable": false, "dtype": {"module": "keras", "class_name": "DTypePolicy", "config": {"name": "float32"}, "registered_name": null}, "activation": "silu"}, "name": "top_activation", "inbound_nodes": [{"args": [{"class_name": "__keras_tensor__", "config": {"shape": [null, 10, 10, 1536], "dtype": "float32", "keras_history": ["top_bn", 0, 0]}}], "kwargs": {}}]}], "input_layers": [["input_layer_6", 0, 0]], "output_layers": [["top_activation", 0, 0]]}}, {"class_name": "GlobalAveragePooling2D", "config": {"name": "global_average_pooling2d_3", "trainable": true, "dtype": {"module": "keras", "class_name": "DTypePolicy", "config": {"name": "float32"}, "registered_name": null}, "data_format": "channels_last", "keepdims": false}}, {"class_name": "BatchNormalization", "config": {"name": "batch_normalization_6", "trainable": true, "dtype": {"module": "keras", "class_name": "DTypePolicy", "config": {"name": "float32"}, "registered_name": null}, "axis": -1, "momentum": 0.99, "epsilon": 0.001, "center": true, "scale": true, "beta_initializer": {"module": "keras.initializers", "class_name": "Zeros", "config": {}, "registered_name": null}, "gamma_initializer": {"module": "keras.initializers", "class_name": "Ones", "config": {}, "registered_name": null}, "moving_mean_initializer": {"module": "keras.initializers", "class_name": "Zeros", "config": {}, "registered_name": null}, "moving_variance_initializer": {"module": "keras.initializers", "class_name": "Ones", "config": {}, "registered_name": null}, "beta_regularizer": null, "gamma_regularizer": null, "beta_constraint": null, "gamma_constraint": null, "synchronized": false}}, {"class_name": "Dense", "config": {"name": "dense_9", "trainable": true, "dtype": {"module": "keras", "class_name": "DTypePolicy", "config": {"name": "float32"}, "registered_name": null}, "units": 512, "activation": "relu", "use_bias": true, "kernel_initializer": {"module": "keras.initializers", "class_name": "GlorotUniform", "config": {"seed": null}, "registered_name": null}, "bias_initializer": {"module": "keras.initializers", "class_name": "Zeros", "config": {}, "registered_name": null}, "kernel_regularizer": null, "bias_regularizer": null, "kernel_constraint": null, "bias_constraint": null}}, {"class_name": "BatchNormalization", "config": {"name": "batch_normalization_7", "trainable": true, "dtype": {"module": "keras", "class_name": "DTypePolicy", "config": {"name": "float32"}, "registered_name": null}, "axis": -1, "momentum": 0.99, "epsilon": 0.001, "center": true, "scale": true, "beta_initializer": {"module": "keras.initializers", "class_name": "Zeros", "config": {}, "registered_name": null}, "gamma_initializer": {"module": "keras.initializers", "class_name": "Ones", "config": {}, "registered_name": null}, "moving_mean_initializer": {"module": "keras.initializers", "class_name": "Zeros", "config": {}, "registered_name": null}, "moving_variance_initializer": {"module": "keras.initializers", "class_name": "Ones", "config": {}, "registered_name": null}, "beta_regularizer": null, "gamma_regularizer": null, "beta_constraint": null, "gamma_constraint": null, "synchronized": false}}, {"class_name": "Dense", "config": {"name": "dense_10", "trainable": true, "dtype": {"module": "keras", "class_name": "DTypePolicy", "config": {"name": "float32"}, "registered_name": null}, "units": 256, "activation": "relu", "use_bias": true, "kernel_initializer": {"module": "keras.initializers", "class_name": "GlorotUniform", "config": {"seed": null}, "registered_name": null}, "bias_initializer": {"module": "keras.initializers", "class_name": "Zeros", "config": {}, "registered_name": null}, "kernel_regularizer": null, "bias_regularizer": null, "kernel_constraint": null, "bias_constraint": null}}, {"class_name": "Dense", "config": {"name": "dense_11", "trainable": true, "dtype": {"module": "keras", "class_name": "DTypePolicy", "config": {"name": "float32"}, "registered_name": null}, "units": 22, "activation": "softmax", "use_bias": true, "kernel_initializer": {"module": "keras.initializers", "class_name": "GlorotUniform", "config": {"seed": null}, "registered_name": null}, "bias_initializer": {"module": "keras.initializers", "class_name": "Zeros", "config": {}, "registered_name": null}, "kernel_regularizer": null, "bias_regularizer": null, "kernel_constraint": null, "bias_constraint": null}}], "build_input_shape": [null, 300, 300, 3]}}, "training_config": {"loss": "categorical_crossentropy", "loss_weights": null, "metrics": ["accuracy"], "weighted_metrics": null, "run_eagerly": false, "steps_per_execution": 1, "jit_compile": false, "optimizer_config": {"class_name": "Adam", "config": {"name": "adam", "learning_rate": 4.999999873689376e-05, "weight_decay": null, "clipnorm": null, "global_clipnorm": null, "clipvalue": null, "use_ema": false, "ema_momentum": 0.99, "ema_overwrite_frequency": null, "loss_scale_factor": null, "gradient_accumulation_steps": null, "beta_1": 0.9, "beta_2": 0.999, "epsilon": 1e-07, "amsgrad": false}}}}, "weightsManifest": [{"paths": ["group1-shard1of12.bin", "group1-shard2of12.bin", "group1-shard3of12.bin", "group1-shard4of12.bin", "group1-shard5of12.bin", "group1-shard6of12.bin", "group1-shard7of12.bin", "group1-shard8of12.bin", "group1-shard9of12.bin", "group1-shard10of12.bin", "group1-shard11of12.bin", "group1-shard12of12.bin"], "weights": [{"name": "sequential_3/batch_normalization_6/gamma", "shape": [1536], "dtype": "float32"}, {"name": "sequential_3/batch_normalization_6/beta", "shape": [1536], "dtype": "float32"}, {"name": "sequential_3/batch_normalization_6/moving_mean", "shape": [1536], "dtype": "float32"}, {"name": "sequential_3/batch_normalization_6/moving_variance", "shape": [1536], "dtype": "float32"}, {"name": "sequential_3/batch_normalization_7/gamma", "shape": [512], "dtype": "float32"}, {"name": "sequential_3/batch_normalization_7/beta", "shape": [512], "dtype": "float32"}, {"name": "sequential_3/batch_normalization_7/moving_mean", "shape": [512], "dtype": "float32"}, {"name": "sequential_3/batch_normalization_7/moving_variance", "shape": [512], "dtype": "float32"}, {"name": "sequential_3/dense_10/kernel", "shape": [512, 256], "dtype": "float32"}, {"name": "sequential_3/dense_10/bias", "shape": [256], "dtype": "float32"}, {"name": "sequential_3/dense_11/kernel", "shape": [256, 22], "dtype": "float32"}, {"name": "sequential_3/dense_11/bias", "shape": [22], "dtype": "float32"}, {"name": "sequential_3/dense_9/kernel", "shape": [1536, 512], "dtype": "float32"}, {"name": "sequential_3/dense_9/bias", "shape": [512], "dtype": "float32"}, {"name": "normalization_3/mean", "shape": [3], "dtype": "float32"}, {"name": "normalization_3/variance", "shape": [3], "dtype": "float32"}, {"name": "normalization_3/count", "shape": [], "dtype": "int32"}, {"name": "stem_conv/kernel", "shape": [3, 3, 3, 40], "dtype": "float32"}, {"name": "stem_bn/gamma", "shape": [40], "dtype": "float32"}, {"name": "stem_bn/beta", "shape": [40], "dtype": "float32"}, {"name": "stem_bn/moving_mean", "shape": [40], "dtype": "float32"}, {"name": "stem_bn/moving_variance", "shape": [40], "dtype": "float32"}, {"name": "block1a_dwconv/kernel", "shape": [3, 3, 40, 1], "dtype": "float32"}, {"name": "block1a_bn/gamma", "shape": [40], "dtype": "float32"}, {"name": "block1a_bn/beta", "shape": [40], "dtype": "float32"}, {"name": "block1a_bn/moving_mean", "shape": [40], "dtype": "float32"}, {"name": "block1a_bn/moving_variance", "shape": [40], "dtype": "float32"}, {"name": "block1a_se_reduce/kernel", "shape": [1, 1, 40, 10], "dtype": "float32"}, {"name": "block1a_se_reduce/bias", "shape": [10], "dtype": "float32"}, {"name": "block1a_se_expand/kernel", "shape": [1, 1, 10, 40], "dtype": "float32"}, {"name": "block1a_se_expand/bias", "shape": [40], "dtype": "float32"}, {"name": "block1a_project_conv/kernel", "shape": [1, 1, 40, 24], "dtype": "float32"}, {"name": "block1a_project_bn/gamma", "shape": [24], "dtype": "float32"}, {"name": "block1a_project_bn/beta", "shape": [24], "dtype": "float32"}, {"name": "block1a_project_bn/moving_mean", "shape": [24], "dtype": "float32"}, {"name": "block1a_project_bn/moving_variance", "shape": [24], "dtype": "float32"}, {"name": "block1b_dwconv/kernel", "shape": [3, 3, 24, 1], "dtype": "float32"}, {"name": "block1b_bn/gamma", "shape": [24], "dtype": "float32"}, {"name": "block1b_bn/beta", "shape": [24], "dtype": "float32"}, {"name": "block1b_bn/moving_mean", "shape": [24], "dtype": "float32"}, {"name": "block1b_bn/moving_variance", "shape": [24], "dtype": "float32"}, {"name": "block1b_se_reduce/kernel", "shape": [1, 1, 24, 6], "dtype": "float32"}, {"name": "block1b_se_reduce/bias", "shape": [6], "dtype": "float32"}, {"name": "block1b_se_expand/kernel", "shape": [1, 1, 6, 24], "dtype": "float32"}, {"name": "block1b_se_expand/bias", "shape": [24], "dtype": "float32"}, {"name": "block1b_project_conv/kernel", "shape": [1, 1, 24, 24], "dtype": "float32"}, {"name": "block1b_project_bn/gamma", "shape": [24], "dtype": "float32"}, {"name": "block1b_project_bn/beta", "shape": [24], "dtype": "float32"}, {"name": "block1b_project_bn/moving_mean", "shape": [24], "dtype": "float32"}, {"name": "block1b_project_bn/moving_variance", "shape": [24], "dtype": "float32"}, {"name": "block2a_expand_conv/kernel", "shape": [1, 1, 24, 144], "dtype": "float32"}, {"name": "block2a_expand_bn/gamma", "shape": [144], "dtype": "float32"}, {"name": "block2a_expand_bn/beta", "shape": [144], "dtype": "float32"}, {"name": "block2a_expand_bn/moving_mean", "shape": [144], "dtype": "float32"}, {"name": "block2a_expand_bn/moving_variance", "shape": [144], "dtype": "float32"}, {"name": "block2a_dwconv/kernel", "shape": [3, 3, 144, 1], "dtype": "float32"}, {"name": "block2a_bn/gamma", "shape": [144], "dtype": "float32"}, {"name": "block2a_bn/beta", "shape": [144], "dtype": "float32"}, {"name": "block2a_bn/moving_mean", "shape": [144], "dtype": "float32"}, {"name": "block2a_bn/moving_variance", "shape": [144], "dtype": "float32"}, {"name": "block2a_se_reduce/kernel", "shape": [1, 1, 144, 6], "dtype": "float32"}, {"name": "block2a_se_reduce/bias", "shape": [6], "dtype": "float32"}, {"name": "block2a_se_expand/kernel", "shape": [1, 1, 6, 144], "dtype": "float32"}, {"name": "block2a_se_expand/bias", "shape": [144], "dtype": "float32"}, {"name": "block2a_project_conv/kernel", "shape": [1, 1, 144, 32], "dtype": "float32"}, {"name": "block2a_project_bn/gamma", "shape": [32], "dtype": "float32"}, {"name": "block2a_project_bn/beta", "shape": [32], "dtype": "float32"}, {"name": "block2a_project_bn/moving_mean", "shape": [32], "dtype": "float32"}, {"name": "block2a_project_bn/moving_variance", "shape": [32], "dtype": "float32"}, {"name": "block2b_expand_conv/kernel", "shape": [1, 1, 32, 192], "dtype": "float32"}, {"name": "block2b_expand_bn/gamma", "shape": [192], "dtype": "float32"}, {"name": "block2b_expand_bn/beta", "shape": [192], "dtype": "float32"}, {"name": "block2b_expand_bn/moving_mean", "shape": [192], "dtype": "float32"}, {"name": "block2b_expand_bn/moving_variance", "shape": [192], "dtype": "float32"}, {"name": "block2b_dwconv/kernel", "shape": [3, 3, 192, 1], "dtype": "float32"}, {"name": "block2b_bn/gamma", "shape": [192], "dtype": "float32"}, {"name": "block2b_bn/beta", "shape": [192], "dtype": "float32"}, {"name": "block2b_bn/moving_mean", "shape": [192], "dtype": "float32"}, {"name": "block2b_bn/moving_variance", "shape": [192], "dtype": "float32"}, {"name": "block2b_se_reduce/kernel", "shape": [1, 1, 192, 8], "dtype": "float32"}, {"name": "block2b_se_reduce/bias", "shape": [8], "dtype": "float32"}, {"name": "block2b_se_expand/kernel", "shape": [1, 1, 8, 192], "dtype": "float32"}, {"name": "block2b_se_expand/bias", "shape": [192], "dtype": "float32"}, {"name": "block2b_project_conv/kernel", "shape": [1, 1, 192, 32], "dtype": "float32"}, {"name": "block2b_project_bn/gamma", "shape": [32], "dtype": "float32"}, {"name": "block2b_project_bn/beta", "shape": [32], "dtype": "float32"}, {"name": "block2b_project_bn/moving_mean", "shape": [32], "dtype": "float32"}, {"name": "block2b_project_bn/moving_variance", "shape": [32], "dtype": "float32"}, {"name": "block2c_expand_conv/kernel", "shape": [1, 1, 32, 192], "dtype": "float32"}, {"name": "block2c_expand_bn/gamma", "shape": [192], "dtype": "float32"}, {"name": "block2c_expand_bn/beta", "shape": [192], "dtype": "float32"}, {"name": "block2c_expand_bn/moving_mean", "shape": [192], "dtype": "float32"}, {"name": "block2c_expand_bn/moving_variance", "shape": [192], "dtype": "float32"}, {"name": "block2c_dwconv/kernel", "shape": [3, 3, 192, 1], "dtype": "float32"}, {"name": "block2c_bn/gamma", "shape": [192], "dtype": "float32"}, {"name": "block2c_bn/beta", "shape": [192], "dtype": "float32"}, {"name": "block2c_bn/moving_mean", "shape": [192], "dtype": "float32"}, {"name": "block2c_bn/moving_variance", "shape": [192], "dtype": "float32"}, {"name": "block2c_se_reduce/kernel", "shape": [1, 1, 192, 8], "dtype": "float32"}, {"name": "block2c_se_reduce/bias", "shape": [8], "dtype": "float32"}, {"name": "block2c_se_expand/kernel", "shape": [1, 1, 8, 192], "dtype": "float32"}, {"name": "block2c_se_expand/bias", "shape": [192], "dtype": "float32"}, {"name": "block2c_project_conv/kernel", "shape": [1, 1, 192, 32], "dtype": "float32"}, {"name": "block2c_project_bn/gamma", "shape": [32], "dtype": "float32"}, {"name": "block2c_project_bn/beta", "shape": [32], "dtype": "float32"}, {"name": "block2c_project_bn/moving_mean", "shape": [32], "dtype": "float32"}, {"name": "block2c_project_bn/moving_variance", "shape": [32], "dtype": "float32"}, {"name": "block3a_expand_conv/kernel", "shape": [1, 1, 32, 192], "dtype": "float32"}, {"name": "block3a_expand_bn/gamma", "shape": [192], "dtype": "float32"}, {"name": "block3a_expand_bn/beta", "shape": [192], "dtype": "float32"}, {"name": "block3a_expand_bn/moving_mean", "shape": [192], "dtype": "float32"}, {"name": "block3a_expand_bn/moving_variance", "shape": [192], "dtype": "float32"}, {"name": "block3a_dwconv/kernel", "shape": [5, 5, 192, 1], "dtype": "float32"}, {"name": "block3a_bn/gamma", "shape": [192], "dtype": "float32"}, {"name": "block3a_bn/beta", "shape": [192], "dtype": "float32"}, {"name": "block3a_bn/moving_mean", "shape": [192], "dtype": "float32"}, {"name": "block3a_bn/moving_variance", "shape": [192], "dtype": "float32"}, {"name": "block3a_se_reduce/kernel", "shape": [1, 1, 192, 8], "dtype": "float32"}, {"name": "block3a_se_reduce/bias", "shape": [8], "dtype": "float32"}, {"name": "block3a_se_expand/kernel", "shape": [1, 1, 8, 192], "dtype": "float32"}, {"name": "block3a_se_expand/bias", "shape": [192], "dtype": "float32"}, {"name": "block3a_project_conv/kernel", "shape": [1, 1, 192, 48], "dtype": "float32"}, {"name": "block3a_project_bn/gamma", "shape": [48], "dtype": "float32"}, {"name": "block3a_project_bn/beta", "shape": [48], "dtype": "float32"}, {"name": "block3a_project_bn/moving_mean", "shape": [48], "dtype": "float32"}, {"name": "block3a_project_bn/moving_variance", "shape": [48], "dtype": "float32"}, {"name": "block3b_expand_conv/kernel", "shape": [1, 1, 48, 288], "dtype": "float32"}, {"name": "block3b_expand_bn/gamma", "shape": [288], "dtype": "float32"}, {"name": "block3b_expand_bn/beta", "shape": [288], "dtype": "float32"}, {"name": "block3b_expand_bn/moving_mean", "shape": [288], "dtype": "float32"}, {"name": "block3b_expand_bn/moving_variance", "shape": [288], "dtype": "float32"}, {"name": "block3b_dwconv/kernel", "shape": [5, 5, 288, 1], "dtype": "float32"}, {"name": "block3b_bn/gamma", "shape": [288], "dtype": "float32"}, {"name": "block3b_bn/beta", "shape": [288], "dtype": "float32"}, {"name": "block3b_bn/moving_mean", "shape": [288], "dtype": "float32"}, {"name": "block3b_bn/moving_variance", "shape": [288], "dtype": "float32"}, {"name": "block3b_se_reduce/kernel", "shape": [1, 1, 288, 12], "dtype": "float32"}, {"name": "block3b_se_reduce/bias", "shape": [12], "dtype": "float32"}, {"name": "block3b_se_expand/kernel", "shape": [1, 1, 12, 288], "dtype": "float32"}, {"name": "block3b_se_expand/bias", "shape": [288], "dtype": "float32"}, {"name": "block3b_project_conv/kernel", "shape": [1, 1, 288, 48], "dtype": "float32"}, {"name": "block3b_project_bn/gamma", "shape": [48], "dtype": "float32"}, {"name": "block3b_project_bn/beta", "shape": [48], "dtype": "float32"}, {"name": "block3b_project_bn/moving_mean", "shape": [48], "dtype": "float32"}, {"name": "block3b_project_bn/moving_variance", "shape": [48], "dtype": "float32"}, {"name": "block3c_expand_conv/kernel", "shape": [1, 1, 48, 288], "dtype": "float32"}, {"name": "block3c_expand_bn/gamma", "shape": [288], "dtype": "float32"}, {"name": "block3c_expand_bn/beta", "shape": [288], "dtype": "float32"}, {"name": "block3c_expand_bn/moving_mean", "shape": [288], "dtype": "float32"}, {"name": "block3c_expand_bn/moving_variance", "shape": [288], "dtype": "float32"}, {"name": "block3c_dwconv/kernel", "shape": [5, 5, 288, 1], "dtype": "float32"}, {"name": "block3c_bn/gamma", "shape": [288], "dtype": "float32"}, {"name": "block3c_bn/beta", "shape": [288], "dtype": "float32"}, {"name": "block3c_bn/moving_mean", "shape": [288], "dtype": "float32"}, {"name": "block3c_bn/moving_variance", "shape": [288], "dtype": "float32"}, {"name": "block3c_se_reduce/kernel", "shape": [1, 1, 288, 12], "dtype": "float32"}, {"name": "block3c_se_reduce/bias", "shape": [12], "dtype": "float32"}, {"name": "block3c_se_expand/kernel", "shape": [1, 1, 12, 288], "dtype": "float32"}, {"name": "block3c_se_expand/bias", "shape": [288], "dtype": "float32"}, {"name": "block3c_project_conv/kernel", "shape": [1, 1, 288, 48], "dtype": "float32"}, {"name": "block3c_project_bn/gamma", "shape": [48], "dtype": "float32"}, {"name": "block3c_project_bn/beta", "shape": [48], "dtype": "float32"}, {"name": "block3c_project_bn/moving_mean", "shape": [48], "dtype": "float32"}, {"name": "block3c_project_bn/moving_variance", "shape": [48], "dtype": "float32"}, {"name": "block4a_expand_conv/kernel", "shape": [1, 1, 48, 288], "dtype": "float32"}, {"name": "block4a_expand_bn/gamma", "shape": [288], "dtype": "float32"}, {"name": "block4a_expand_bn/beta", "shape": [288], "dtype": "float32"}, {"name": "block4a_expand_bn/moving_mean", "shape": [288], "dtype": "float32"}, {"name": "block4a_expand_bn/moving_variance", "shape": [288], "dtype": "float32"}, {"name": "block4a_dwconv/kernel", "shape": [3, 3, 288, 1], "dtype": "float32"}, {"name": "block4a_bn/gamma", "shape": [288], "dtype": "float32"}, {"name": "block4a_bn/beta", "shape": [288], "dtype": "float32"}, {"name": "block4a_bn/moving_mean", "shape": [288], "dtype": "float32"}, {"name": "block4a_bn/moving_variance", "shape": [288], "dtype": "float32"}, {"name": "block4a_se_reduce/kernel", "shape": [1, 1, 288, 12], "dtype": "float32"}, {"name": "block4a_se_reduce/bias", "shape": [12], "dtype": "float32"}, {"name": "block4a_se_expand/kernel", "shape": [1, 1, 12, 288], "dtype": "float32"}, {"name": "block4a_se_expand/bias", "shape": [288], "dtype": "float32"}, {"name": "block4a_project_conv/kernel", "shape": [1, 1, 288, 96], "dtype": "float32"}, {"name": "block4a_project_bn/gamma", "shape": [96], "dtype": "float32"}, {"name": "block4a_project_bn/beta", "shape": [96], "dtype": "float32"}, {"name": "block4a_project_bn/moving_mean", "shape": [96], "dtype": "float32"}, {"name": "block4a_project_bn/moving_variance", "shape": [96], "dtype": "float32"}, {"name": "block4b_expand_conv/kernel", "shape": [1, 1, 96, 576], "dtype": "float32"}, {"name": "block4b_expand_bn/gamma", "shape": [576], "dtype": "float32"}, {"name": "block4b_expand_bn/beta", "shape": [576], "dtype": "float32"}, {"name": "block4b_expand_bn/moving_mean", "shape": [576], "dtype": "float32"}, {"name": "block4b_expand_bn/moving_variance", "shape": [576], "dtype": "float32"}, {"name": "block4b_dwconv/kernel", "shape": [3, 3, 576, 1], "dtype": "float32"}, {"name": "block4b_bn/gamma", "shape": [576], "dtype": "float32"}, {"name": "block4b_bn/beta", "shape": [576], "dtype": "float32"}, {"name": "block4b_bn/moving_mean", "shape": [576], "dtype": "float32"}, {"name": "block4b_bn/moving_variance", "shape": [576], "dtype": "float32"}, {"name": "block4b_se_reduce/kernel", "shape": [1, 1, 576, 24], "dtype": "float32"}, {"name": "block4b_se_reduce/bias", "shape": [24], "dtype": "float32"}, {"name": "block4b_se_expand/kernel", "shape": [1, 1, 24, 576], "dtype": "float32"}, {"name": "block4b_se_expand/bias", "shape": [576], "dtype": "float32"}, {"name": "block4b_project_conv/kernel", "shape": [1, 1, 576, 96], "dtype": "float32"}, {"name": "block4b_project_bn/gamma", "shape": [96], "dtype": "float32"}, {"name": "block4b_project_bn/beta", "shape": [96], "dtype": "float32"}, {"name": "block4b_project_bn/moving_mean", "shape": [96], "dtype": "float32"}, {"name": "block4b_project_bn/moving_variance", "shape": [96], "dtype": "float32"}, {"name": "block4c_expand_conv/kernel", "shape": [1, 1, 96, 576], "dtype": "float32"}, {"name": "block4c_expand_bn/gamma", "shape": [576], "dtype": "float32"}, {"name": "block4c_expand_bn/beta", "shape": [576], "dtype": "float32"}, {"name": "block4c_expand_bn/moving_mean", "shape": [576], "dtype": "float32"}, {"name": "block4c_expand_bn/moving_variance", "shape": [576], "dtype": "float32"}, {"name": "block4c_dwconv/kernel", "shape": [3, 3, 576, 1], "dtype": "float32"}, {"name": "block4c_bn/gamma", "shape": [576], "dtype": "float32"}, {"name": "block4c_bn/beta", "shape": [576], "dtype": "float32"}, {"name": "block4c_bn/moving_mean", "shape": [576], "dtype": "float32"}, {"name": "block4c_bn/moving_variance", "shape": [576], "dtype": "float32"}, {"name": "block4c_se_reduce/kernel", "shape": [1, 1, 576, 24], "dtype": "float32"}, {"name": "block4c_se_reduce/bias", "shape": [24], "dtype": "float32"}, {"name": "block4c_se_expand/kernel", "shape": [1, 1, 24, 576], "dtype": "float32"}, {"name": "block4c_se_expand/bias", "shape": [576], "dtype": "float32"}, {"name": "block4c_project_conv/kernel", "shape": [1, 1, 576, 96], "dtype": "float32"}, {"name": "block4c_project_bn/gamma", "shape": [96], "dtype": "float32"}, {"name": "block4c_project_bn/beta", "shape": [96], "dtype": "float32"}, {"name": "block4c_project_bn/moving_mean", "shape": [96], "dtype": "float32"}, {"name": "block4c_project_bn/moving_variance", "shape": [96], "dtype": "float32"}, {"name": "block4d_expand_conv/kernel", "shape": [1, 1, 96, 576], "dtype": "float32"}, {"name": "block4d_expand_bn/gamma", "shape": [576], "dtype": "float32"}, {"name": "block4d_expand_bn/beta", "shape": [576], "dtype": "float32"}, {"name": "block4d_expand_bn/moving_mean", "shape": [576], "dtype": "float32"}, {"name": "block4d_expand_bn/moving_variance", "shape": [576], "dtype": "float32"}, {"name": "block4d_dwconv/kernel", "shape": [3, 3, 576, 1], "dtype": "float32"}, {"name": "block4d_bn/gamma", "shape": [576], "dtype": "float32"}, {"name": "block4d_bn/beta", "shape": [576], "dtype": "float32"}, {"name": "block4d_bn/moving_mean", "shape": [576], "dtype": "float32"}, {"name": "block4d_bn/moving_variance", "shape": [576], "dtype": "float32"}, {"name": "block4d_se_reduce/kernel", "shape": [1, 1, 576, 24], "dtype": "float32"}, {"name": "block4d_se_reduce/bias", "shape": [24], "dtype": "float32"}, {"name": "block4d_se_expand/kernel", "shape": [1, 1, 24, 576], "dtype": "float32"}, {"name": "block4d_se_expand/bias", "shape": [576], "dtype": "float32"}, {"name": "block4d_project_conv/kernel", "shape": [1, 1, 576, 96], "dtype": "float32"}, {"name": "block4d_project_bn/gamma", "shape": [96], "dtype": "float32"}, {"name": "block4d_project_bn/beta", "shape": [96], "dtype": "float32"}, {"name": "block4d_project_bn/moving_mean", "shape": [96], "dtype": "float32"}, {"name": "block4d_project_bn/moving_variance", "shape": [96], "dtype": "float32"}, {"name": "block4e_expand_conv/kernel", "shape": [1, 1, 96, 576], "dtype": "float32"}, {"name": "block4e_expand_bn/gamma", "shape": [576], "dtype": "float32"}, {"name": "block4e_expand_bn/beta", "shape": [576], "dtype": "float32"}, {"name": "block4e_expand_bn/moving_mean", "shape": [576], "dtype": "float32"}, {"name": "block4e_expand_bn/moving_variance", "shape": [576], "dtype": "float32"}, {"name": "block4e_dwconv/kernel", "shape": [3, 3, 576, 1], "dtype": "float32"}, {"name": "block4e_bn/gamma", "shape": [576], "dtype": "float32"}, {"name": "block4e_bn/beta", "shape": [576], "dtype": "float32"}, {"name": "block4e_bn/moving_mean", "shape": [576], "dtype": "float32"}, {"name": "block4e_bn/moving_variance", "shape": [576], "dtype": "float32"}, {"name": "block4e_se_reduce/kernel", "shape": [1, 1, 576, 24], "dtype": "float32"}, {"name": "block4e_se_reduce/bias", "shape": [24], "dtype": "float32"}, {"name": "block4e_se_expand/kernel", "shape": [1, 1, 24, 576], "dtype": "float32"}, {"name": "block4e_se_expand/bias", "shape": [576], "dtype": "float32"}, {"name": "block4e_project_conv/kernel", "shape": [1, 1, 576, 96], "dtype": "float32"}, {"name": "block4e_project_bn/gamma", "shape": [96], "dtype": "float32"}, {"name": "block4e_project_bn/beta", "shape": [96], "dtype": "float32"}, {"name": "block4e_project_bn/moving_mean", "shape": [96], "dtype": "float32"}, {"name": "block4e_project_bn/moving_variance", "shape": [96], "dtype": "float32"}, {"name": "block5a_expand_conv/kernel", "shape": [1, 1, 96, 576], "dtype": "float32"}, {"name": "block5a_expand_bn/gamma", "shape": [576], "dtype": "float32"}, {"name": "block5a_expand_bn/beta", "shape": [576], "dtype": "float32"}, {"name": "block5a_expand_bn/moving_mean", "shape": [576], "dtype": "float32"}, {"name": "block5a_expand_bn/moving_variance", "shape": [576], "dtype": "float32"}, {"name": "block5a_dwconv/kernel", "shape": [5, 5, 576, 1], "dtype": "float32"}, {"name": "block5a_bn/gamma", "shape": [576], "dtype": "float32"}, {"name": "block5a_bn/beta", "shape": [576], "dtype": "float32"}, {"name": "block5a_bn/moving_mean", "shape": [576], "dtype": "float32"}, {"name": "block5a_bn/moving_variance", "shape": [576], "dtype": "float32"}, {"name": "block5a_se_reduce/kernel", "shape": [1, 1, 576, 24], "dtype": "float32"}, {"name": "block5a_se_reduce/bias", "shape": [24], "dtype": "float32"}, {"name": "block5a_se_expand/kernel", "shape": [1, 1, 24, 576], "dtype": "float32"}, {"name": "block5a_se_expand/bias", "shape": [576], "dtype": "float32"}, {"name": "block5a_project_conv/kernel", "shape": [1, 1, 576, 136], "dtype": "float32"}, {"name": "block5a_project_bn/gamma", "shape": [136], "dtype": "float32"}, {"name": "block5a_project_bn/beta", "shape": [136], "dtype": "float32"}, {"name": "block5a_project_bn/moving_mean", "shape": [136], "dtype": "float32"}, {"name": "block5a_project_bn/moving_variance", "shape": [136], "dtype": "float32"}, {"name": "block5b_expand_conv/kernel", "shape": [1, 1, 136, 816], "dtype": "float32"}, {"name": "block5b_expand_bn/gamma", "shape": [816], "dtype": "float32"}, {"name": "block5b_expand_bn/beta", "shape": [816], "dtype": "float32"}, {"name": "block5b_expand_bn/moving_mean", "shape": [816], "dtype": "float32"}, {"name": "block5b_expand_bn/moving_variance", "shape": [816], "dtype": "float32"}, {"name": "block5b_dwconv/kernel", "shape": [5, 5, 816, 1], "dtype": "float32"}, {"name": "block5b_bn/gamma", "shape": [816], "dtype": "float32"}, {"name": "block5b_bn/beta", "shape": [816], "dtype": "float32"}, {"name": "block5b_bn/moving_mean", "shape": [816], "dtype": "float32"}, {"name": "block5b_bn/moving_variance", "shape": [816], "dtype": "float32"}, {"name": "block5b_se_reduce/kernel", "shape": [1, 1, 816, 34], "dtype": "float32"}, {"name": "block5b_se_reduce/bias", "shape": [34], "dtype": "float32"}, {"name": "block5b_se_expand/kernel", "shape": [1, 1, 34, 816], "dtype": "float32"}, {"name": "block5b_se_expand/bias", "shape": [816], "dtype": "float32"}, {"name": "block5b_project_conv/kernel", "shape": [1, 1, 816, 136], "dtype": "float32"}, {"name": "block5b_project_bn/gamma", "shape": [136], "dtype": "float32"}, {"name": "block5b_project_bn/beta", "shape": [136], "dtype": "float32"}, {"name": "block5b_project_bn/moving_mean", "shape": [136], "dtype": "float32"}, {"name": "block5b_project_bn/moving_variance", "shape": [136], "dtype": "float32"}, {"name": "block5c_expand_conv/kernel", "shape": [1, 1, 136, 816], "dtype": "float32"}, {"name": "block5c_expand_bn/gamma", "shape": [816], "dtype": "float32"}, {"name": "block5c_expand_bn/beta", "shape": [816], "dtype": "float32"}, {"name": "block5c_expand_bn/moving_mean", "shape": [816], "dtype": "float32"}, {"name": "block5c_expand_bn/moving_variance", "shape": [816], "dtype": "float32"}, {"name": "block5c_dwconv/kernel", "shape": [5, 5, 816, 1], "dtype": "float32"}, {"name": "block5c_bn/gamma", "shape": [816], "dtype": "float32"}, {"name": "block5c_bn/beta", "shape": [816], "dtype": "float32"}, {"name": "block5c_bn/moving_mean", "shape": [816], "dtype": "float32"}, {"name": "block5c_bn/moving_variance", "shape": [816], "dtype": "float32"}, {"name": "block5c_se_reduce/kernel", "shape": [1, 1, 816, 34], "dtype": "float32"}, {"name": "block5c_se_reduce/bias", "shape": [34], "dtype": "float32"}, {"name": "block5c_se_expand/kernel", "shape": [1, 1, 34, 816], "dtype": "float32"}, {"name": "block5c_se_expand/bias", "shape": [816], "dtype": "float32"}, {"name": "block5c_project_conv/kernel", "shape": [1, 1, 816, 136], "dtype": "float32"}, {"name": "block5c_project_bn/gamma", "shape": [136], "dtype": "float32"}, {"name": "block5c_project_bn/beta", "shape": [136], "dtype": "float32"}, {"name": "block5c_project_bn/moving_mean", "shape": [136], "dtype": "float32"}, {"name": "block5c_project_bn/moving_variance", "shape": [136], "dtype": "float32"}, {"name": "block5d_expand_conv/kernel", "shape": [1, 1, 136, 816], "dtype": "float32"}, {"name": "block5d_expand_bn/gamma", "shape": [816], "dtype": "float32"}, {"name": "block5d_expand_bn/beta", "shape": [816], "dtype": "float32"}, {"name": "block5d_expand_bn/moving_mean", "shape": [816], "dtype": "float32"}, {"name": "block5d_expand_bn/moving_variance", "shape": [816], "dtype": "float32"}, {"name": "block5d_dwconv/kernel", "shape": [5, 5, 816, 1], "dtype": "float32"}, {"name": "block5d_bn/gamma", "shape": [816], "dtype": "float32"}, {"name": "block5d_bn/beta", "shape": [816], "dtype": "float32"}, {"name": "block5d_bn/moving_mean", "shape": [816], "dtype": "float32"}, {"name": "block5d_bn/moving_variance", "shape": [816], "dtype": "float32"}, {"name": "block5d_se_reduce/kernel", "shape": [1, 1, 816, 34], "dtype": "float32"}, {"name": "block5d_se_reduce/bias", "shape": [34], "dtype": "float32"}, {"name": "block5d_se_expand/kernel", "shape": [1, 1, 34, 816], "dtype": "float32"}, {"name": "block5d_se_expand/bias", "shape": [816], "dtype": "float32"}, {"name": "block5d_project_conv/kernel", "shape": [1, 1, 816, 136], "dtype": "float32"}, {"name": "block5d_project_bn/gamma", "shape": [136], "dtype": "float32"}, {"name": "block5d_project_bn/beta", "shape": [136], "dtype": "float32"}, {"name": "block5d_project_bn/moving_mean", "shape": [136], "dtype": "float32"}, {"name": "block5d_project_bn/moving_variance", "shape": [136], "dtype": "float32"}, {"name": "block5e_expand_conv/kernel", "shape": [1, 1, 136, 816], "dtype": "float32"}, {"name": "block5e_expand_bn/gamma", "shape": [816], "dtype": "float32"}, {"name": "block5e_expand_bn/beta", "shape": [816], "dtype": "float32"}, {"name": "block5e_expand_bn/moving_mean", "shape": [816], "dtype": "float32"}, {"name": "block5e_expand_bn/moving_variance", "shape": [816], "dtype": "float32"}, {"name": "block5e_dwconv/kernel", "shape": [5, 5, 816, 1], "dtype": "float32"}, {"name": "block5e_bn/gamma", "shape": [816], "dtype": "float32"}, {"name": "block5e_bn/beta", "shape": [816], "dtype": "float32"}, {"name": "block5e_bn/moving_mean", "shape": [816], "dtype": "float32"}, {"name": "block5e_bn/moving_variance", "shape": [816], "dtype": "float32"}, {"name": "block5e_se_reduce/kernel", "shape": [1, 1, 816, 34], "dtype": "float32"}, {"name": "block5e_se_reduce/bias", "shape": [34], "dtype": "float32"}, {"name": "block5e_se_expand/kernel", "shape": [1, 1, 34, 816], "dtype": "float32"}, {"name": "block5e_se_expand/bias", "shape": [816], "dtype": "float32"}, {"name": "block5e_project_conv/kernel", "shape": [1, 1, 816, 136], "dtype": "float32"}, {"name": "block5e_project_bn/gamma", "shape": [136], "dtype": "float32"}, {"name": "block5e_project_bn/beta", "shape": [136], "dtype": "float32"}, {"name": "block5e_project_bn/moving_mean", "shape": [136], "dtype": "float32"}, {"name": "block5e_project_bn/moving_variance", "shape": [136], "dtype": "float32"}, {"name": "block6a_expand_conv/kernel", "shape": [1, 1, 136, 816], "dtype": "float32"}, {"name": "block6a_expand_bn/gamma", "shape": [816], "dtype": "float32"}, {"name": "block6a_expand_bn/beta", "shape": [816], "dtype": "float32"}, {"name": "block6a_expand_bn/moving_mean", "shape": [816], "dtype": "float32"}, {"name": "block6a_expand_bn/moving_variance", "shape": [816], "dtype": "float32"}, {"name": "block6a_dwconv/kernel", "shape": [5, 5, 816, 1], "dtype": "float32"}, {"name": "block6a_bn/gamma", "shape": [816], "dtype": "float32"}, {"name": "block6a_bn/beta", "shape": [816], "dtype": "float32"}, {"name": "block6a_bn/moving_mean", "shape": [816], "dtype": "float32"}, {"name": "block6a_bn/moving_variance", "shape": [816], "dtype": "float32"}, {"name": "block6a_se_reduce/kernel", "shape": [1, 1, 816, 34], "dtype": "float32"}, {"name": "block6a_se_reduce/bias", "shape": [34], "dtype": "float32"}, {"name": "block6a_se_expand/kernel", "shape": [1, 1, 34, 816], "dtype": "float32"}, {"name": "block6a_se_expand/bias", "shape": [816], "dtype": "float32"}, {"name": "block6a_project_conv/kernel", "shape": [1, 1, 816, 232], "dtype": "float32"}, {"name": "block6a_project_bn/gamma", "shape": [232], "dtype": "float32"}, {"name": "block6a_project_bn/beta", "shape": [232], "dtype": "float32"}, {"name": "block6a_project_bn/moving_mean", "shape": [232], "dtype": "float32"}, {"name": "block6a_project_bn/moving_variance", "shape": [232], "dtype": "float32"}, {"name": "block6b_expand_conv/kernel", "shape": [1, 1, 232, 1392], "dtype": "float32"}, {"name": "block6b_expand_bn/gamma", "shape": [1392], "dtype": "float32"}, {"name": "block6b_expand_bn/beta", "shape": [1392], "dtype": "float32"}, {"name": "block6b_expand_bn/moving_mean", "shape": [1392], "dtype": "float32"}, {"name": "block6b_expand_bn/moving_variance", "shape": [1392], "dtype": "float32"}, {"name": "block6b_dwconv/kernel", "shape": [5, 5, 1392, 1], "dtype": "float32"}, {"name": "block6b_bn/gamma", "shape": [1392], "dtype": "float32"}, {"name": "block6b_bn/beta", "shape": [1392], "dtype": "float32"}, {"name": "block6b_bn/moving_mean", "shape": [1392], "dtype": "float32"}, {"name": "block6b_bn/moving_variance", "shape": [1392], "dtype": "float32"}, {"name": "block6b_se_reduce/kernel", "shape": [1, 1, 1392, 58], "dtype": "float32"}, {"name": "block6b_se_reduce/bias", "shape": [58], "dtype": "float32"}, {"name": "block6b_se_expand/kernel", "shape": [1, 1, 58, 1392], "dtype": "float32"}, {"name": "block6b_se_expand/bias", "shape": [1392], "dtype": "float32"}, {"name": "block6b_project_conv/kernel", "shape": [1, 1, 1392, 232], "dtype": "float32"}, {"name": "block6b_project_bn/gamma", "shape": [232], "dtype": "float32"}, {"name": "block6b_project_bn/beta", "shape": [232], "dtype": "float32"}, {"name": "block6b_project_bn/moving_mean", "shape": [232], "dtype": "float32"}, {"name": "block6b_project_bn/moving_variance", "shape": [232], "dtype": "float32"}, {"name": "block6c_expand_conv/kernel", "shape": [1, 1, 232, 1392], "dtype": "float32"}, {"name": "block6c_expand_bn/gamma", "shape": [1392], "dtype": "float32"}, {"name": "block6c_expand_bn/beta", "shape": [1392], "dtype": "float32"}, {"name": "block6c_expand_bn/moving_mean", "shape": [1392], "dtype": "float32"}, {"name": "block6c_expand_bn/moving_variance", "shape": [1392], "dtype": "float32"}, {"name": "block6c_dwconv/kernel", "shape": [5, 5, 1392, 1], "dtype": "float32"}, {"name": "block6c_bn/gamma", "shape": [1392], "dtype": "float32"}, {"name": "block6c_bn/beta", "shape": [1392], "dtype": "float32"}, {"name": "block6c_bn/moving_mean", "shape": [1392], "dtype": "float32"}, {"name": "block6c_bn/moving_variance", "shape": [1392], "dtype": "float32"}, {"name": "block6c_se_reduce/kernel", "shape": [1, 1, 1392, 58], "dtype": "float32"}, {"name": "block6c_se_reduce/bias", "shape": [58], "dtype": "float32"}, {"name": "block6c_se_expand/kernel", "shape": [1, 1, 58, 1392], "dtype": "float32"}, {"name": "block6c_se_expand/bias", "shape": [1392], "dtype": "float32"}, {"name": "block6c_project_conv/kernel", "shape": [1, 1, 1392, 232], "dtype": "float32"}, {"name": "block6c_project_bn/gamma", "shape": [232], "dtype": "float32"}, {"name": "block6c_project_bn/beta", "shape": [232], "dtype": "float32"}, {"name": "block6c_project_bn/moving_mean", "shape": [232], "dtype": "float32"}, {"name": "block6c_project_bn/moving_variance", "shape": [232], "dtype": "float32"}, {"name": "block6d_expand_conv/kernel", "shape": [1, 1, 232, 1392], "dtype": "float32"}, {"name": "block6d_expand_bn/gamma", "shape": [1392], "dtype": "float32"}, {"name": "block6d_expand_bn/beta", "shape": [1392], "dtype": "float32"}, {"name": "block6d_expand_bn/moving_mean", "shape": [1392], "dtype": "float32"}, {"name": "block6d_expand_bn/moving_variance", "shape": [1392], "dtype": "float32"}, {"name": "block6d_dwconv/kernel", "shape": [5, 5, 1392, 1], "dtype": "float32"}, {"name": "block6d_bn/gamma", "shape": [1392], "dtype": "float32"}, {"name": "block6d_bn/beta", "shape": [1392], "dtype": "float32"}, {"name": "block6d_bn/moving_mean", "shape": [1392], "dtype": "float32"}, {"name": "block6d_bn/moving_variance", "shape": [1392], "dtype": "float32"}, {"name": "block6d_se_reduce/kernel", "shape": [1, 1, 1392, 58], "dtype": "float32"}, {"name": "block6d_se_reduce/bias", "shape": [58], "dtype": "float32"}, {"name": "block6d_se_expand/kernel", "shape": [1, 1, 58, 1392], "dtype": "float32"}, {"name": "block6d_se_expand/bias", "shape": [1392], "dtype": "float32"}, {"name": "block6d_project_conv/kernel", "shape": [1, 1, 1392, 232], "dtype": "float32"}, {"name": "block6d_project_bn/gamma", "shape": [232], "dtype": "float32"}, {"name": "block6d_project_bn/beta", "shape": [232], "dtype": "float32"}, {"name": "block6d_project_bn/moving_mean", "shape": [232], "dtype": "float32"}, {"name": "block6d_project_bn/moving_variance", "shape": [232], "dtype": "float32"}, {"name": "block6e_expand_conv/kernel", "shape": [1, 1, 232, 1392], "dtype": "float32"}, {"name": "block6e_expand_bn/gamma", "shape": [1392], "dtype": "float32"}, {"name": "block6e_expand_bn/beta", "shape": [1392], "dtype": "float32"}, {"name": "block6e_expand_bn/moving_mean", "shape": [1392], "dtype": "float32"}, {"name": "block6e_expand_bn/moving_variance", "shape": [1392], "dtype": "float32"}, {"name": "block6e_dwconv/kernel", "shape": [5, 5, 1392, 1], "dtype": "float32"}, {"name": "block6e_bn/gamma", "shape": [1392], "dtype": "float32"}, {"name": "block6e_bn/beta", "shape": [1392], "dtype": "float32"}, {"name": "block6e_bn/moving_mean", "shape": [1392], "dtype": "float32"}, {"name": "block6e_bn/moving_variance", "shape": [1392], "dtype": "float32"}, {"name": "block6e_se_reduce/kernel", "shape": [1, 1, 1392, 58], "dtype": "float32"}, {"name": "block6e_se_reduce/bias", "shape": [58], "dtype": "float32"}, {"name": "block6e_se_expand/kernel", "shape": [1, 1, 58, 1392], "dtype": "float32"}, {"name": "block6e_se_expand/bias", "shape": [1392], "dtype": "float32"}, {"name": "block6e_project_conv/kernel", "shape": [1, 1, 1392, 232], "dtype": "float32"}, {"name": "block6e_project_bn/gamma", "shape": [232], "dtype": "float32"}, {"name": "block6e_project_bn/beta", "shape": [232], "dtype": "float32"}, {"name": "block6e_project_bn/moving_mean", "shape": [232], "dtype": "float32"}, {"name": "block6e_project_bn/moving_variance", "shape": [232], "dtype": "float32"}, {"name": "block6f_expand_conv/kernel", "shape": [1, 1, 232, 1392], "dtype": "float32"}, {"name": "block6f_expand_bn/gamma", "shape": [1392], "dtype": "float32"}, {"name": "block6f_expand_bn/beta", "shape": [1392], "dtype": "float32"}, {"name": "block6f_expand_bn/moving_mean", "shape": [1392], "dtype": "float32"}, {"name": "block6f_expand_bn/moving_variance", "shape": [1392], "dtype": "float32"}, {"name": "block6f_dwconv/kernel", "shape": [5, 5, 1392, 1], "dtype": "float32"}, {"name": "block6f_bn/gamma", "shape": [1392], "dtype": "float32"}, {"name": "block6f_bn/beta", "shape": [1392], "dtype": "float32"}, {"name": "block6f_bn/moving_mean", "shape": [1392], "dtype": "float32"}, {"name": "block6f_bn/moving_variance", "shape": [1392], "dtype": "float32"}, {"name": "block6f_se_reduce/kernel", "shape": [1, 1, 1392, 58], "dtype": "float32"}, {"name": "block6f_se_reduce/bias", "shape": [58], "dtype": "float32"}, {"name": "block6f_se_expand/kernel", "shape": [1, 1, 58, 1392], "dtype": "float32"}, {"name": "block6f_se_expand/bias", "shape": [1392], "dtype": "float32"}, {"name": "block6f_project_conv/kernel", "shape": [1, 1, 1392, 232], "dtype": "float32"}, {"name": "block6f_project_bn/gamma", "shape": [232], "dtype": "float32"}, {"name": "block6f_project_bn/beta", "shape": [232], "dtype": "float32"}, {"name": "block6f_project_bn/moving_mean", "shape": [232], "dtype": "float32"}, {"name": "block6f_project_bn/moving_variance", "shape": [232], "dtype": "float32"}, {"name": "block7a_expand_conv/kernel", "shape": [1, 1, 232, 1392], "dtype": "float32"}, {"name": "block7a_expand_bn/gamma", "shape": [1392], "dtype": "float32"}, {"name": "block7a_expand_bn/beta", "shape": [1392], "dtype": "float32"}, {"name": "block7a_expand_bn/moving_mean", "shape": [1392], "dtype": "float32"}, {"name": "block7a_expand_bn/moving_variance", "shape": [1392], "dtype": "float32"}, {"name": "block7a_dwconv/kernel", "shape": [3, 3, 1392, 1], "dtype": "float32"}, {"name": "block7a_bn/gamma", "shape": [1392], "dtype": "float32"}, {"name": "block7a_bn/beta", "shape": [1392], "dtype": "float32"}, {"name": "block7a_bn/moving_mean", "shape": [1392], "dtype": "float32"}, {"name": "block7a_bn/moving_variance", "shape": [1392], "dtype": "float32"}, {"name": "block7a_se_reduce/kernel", "shape": [1, 1, 1392, 58], "dtype": "float32"}, {"name": "block7a_se_reduce/bias", "shape": [58], "dtype": "float32"}, {"name": "block7a_se_expand/kernel", "shape": [1, 1, 58, 1392], "dtype": "float32"}, {"name": "block7a_se_expand/bias", "shape": [1392], "dtype": "float32"}, {"name": "block7a_project_conv/kernel", "shape": [1, 1, 1392, 384], "dtype": "float32"}, {"name": "block7a_project_bn/gamma", "shape": [384], "dtype": "float32"}, {"name": "block7a_project_bn/beta", "shape": [384], "dtype": "float32"}, {"name": "block7a_project_bn/moving_mean", "shape": [384], "dtype": "float32"}, {"name": "block7a_project_bn/moving_variance", "shape": [384], "dtype": "float32"}, {"name": "block7b_expand_conv/kernel", "shape": [1, 1, 384, 2304], "dtype": "float32"}, {"name": "block7b_expand_bn/gamma", "shape": [2304], "dtype": "float32"}, {"name": "block7b_expand_bn/beta", "shape": [2304], "dtype": "float32"}, {"name": "block7b_expand_bn/moving_mean", "shape": [2304], "dtype": "float32"}, {"name": "block7b_expand_bn/moving_variance", "shape": [2304], "dtype": "float32"}, {"name": "block7b_dwconv/kernel", "shape": [3, 3, 2304, 1], "dtype": "float32"}, {"name": "block7b_bn/gamma", "shape": [2304], "dtype": "float32"}, {"name": "block7b_bn/beta", "shape": [2304], "dtype": "float32"}, {"name": "block7b_bn/moving_mean", "shape": [2304], "dtype": "float32"}, {"name": "block7b_bn/moving_variance", "shape": [2304], "dtype": "float32"}, {"name": "block7b_se_reduce/kernel", "shape": [1, 1, 2304, 96], "dtype": "float32"}, {"name": "block7b_se_reduce/bias", "shape": [96], "dtype": "float32"}, {"name": "block7b_se_expand/kernel", "shape": [1, 1, 96, 2304], "dtype": "float32"}, {"name": "block7b_se_expand/bias", "shape": [2304], "dtype": "float32"}, {"name": "block7b_project_conv/kernel", "shape": [1, 1, 2304, 384], "dtype": "float32"}, {"name": "block7b_project_bn/gamma", "shape": [384], "dtype": "float32"}, {"name": "block7b_project_bn/beta", "shape": [384], "dtype": "float32"}, {"name": "block7b_project_bn/moving_mean", "shape": [384], "dtype": "float32"}, {"name": "block7b_project_bn/moving_variance", "shape": [384], "dtype": "float32"}, {"name": "top_conv/kernel", "shape": [1, 1, 384, 1536], "dtype": "float32"}, {"name": "top_bn/gamma", "shape": [1536], "dtype": "float32"}, {"name": "top_bn/beta", "shape": [1536], "dtype": "float32"}, {"name": "top_bn/moving_mean", "shape": [1536], "dtype": "float32"}, {"name": "top_bn/moving_variance", "shape": [1536], "dtype": "float32"}]}]}